{
  "nodes": [
    {
      "op": "null", 
      "name": "data", 
      "inputs": []
    }, 
    {
      "op": "null", 
      "name": "conv_conv2d_weight", 
      "attrs": {
        "kernel": "(3, 3)", 
        "no_bias": "True", 
        "num_filter": "32", 
        "pad": "(0, 0)", 
        "stride": "(2, 2)"
      }, 
      "inputs": []
    }, 
    {
      "op": "Convolution", 
      "name": "conv_conv2d", 
      "attrs": {
        "kernel": "(3, 3)", 
        "no_bias": "True", 
        "num_filter": "32", 
        "pad": "(0, 0)", 
        "stride": "(2, 2)"
      }, 
      "inputs": [[0, 0, 0], [1, 0, 0]]
    }, 
    {
      "op": "null", 
      "name": "conv_batchnorm_gamma", 
      "attrs": {"fix_gamma": "True"}, 
      "inputs": []
    }, 
    {
      "op": "null", 
      "name": "conv_batchnorm_beta", 
      "attrs": {"fix_gamma": "True"}, 
      "inputs": []
    }, 
    {
      "op": "null", 
      "name": "conv_batchnorm_moving_mean", 
      "attrs": {
        "__init__": "[\"zero\", {}]", 
        "fix_gamma": "True"
      }, 
      "inputs": []
    }, 
    {
      "op": "null", 
      "name": "conv_batchnorm_moving_var", 
      "attrs": {
        "__init__": "[\"one\", {}]", 
        "fix_gamma": "True"
      }, 
      "inputs": []
    }, 
    {
      "op": "BatchNorm", 
      "name": "conv_batchnorm", 
      "attrs": {"fix_gamma": "True"}, 
      "inputs": [[2, 0, 0], [3, 0, 0], [4, 0, 0], [5, 0, 1], [6, 0, 1]]
    }, 
    {
      "op": "Activation", 
      "name": "conv_relu", 
      "attrs": {"act_type": "relu"}, 
      "inputs": [[7, 0, 0]]
    }, 
    {
      "op": "null", 
      "name": "conv_1_conv2d_weight", 
      "attrs": {
        "kernel": "(3, 3)", 
        "no_bias": "True", 
        "num_filter": "32", 
        "pad": "(0, 0)", 
        "stride": "(1, 1)"
      }, 
      "inputs": []
    }, 
    {
      "op": "Convolution", 
      "name": "conv_1_conv2d", 
      "attrs": {
        "kernel": "(3, 3)", 
        "no_bias": "True", 
        "num_filter": "32", 
        "pad": "(0, 0)", 
        "stride": "(1, 1)"
      }, 
      "inputs": [[8, 0, 0], [9, 0, 0]]
    }, 
    {
      "op": "null", 
      "name": "conv_1_batchnorm_gamma", 
      "attrs": {"fix_gamma": "True"}, 
      "inputs": []
    }, 
    {
      "op": "null", 
      "name": "conv_1_batchnorm_beta", 
      "attrs": {"fix_gamma": "True"}, 
      "inputs": []
    }, 
    {
      "op": "null", 
      "name": "conv_1_batchnorm_moving_mean", 
      "attrs": {
        "__init__": "[\"zero\", {}]", 
        "fix_gamma": "True"
      }, 
      "inputs": []
    }, 
    {
      "op": "null", 
      "name": "conv_1_batchnorm_moving_var", 
      "attrs": {
        "__init__": "[\"one\", {}]", 
        "fix_gamma": "True"
      }, 
      "inputs": []
    }, 
    {
      "op": "BatchNorm", 
      "name": "conv_1_batchnorm", 
      "attrs": {"fix_gamma": "True"}, 
      "inputs": [[10, 0, 0], [11, 0, 0], [12, 0, 0], [13, 0, 1], [14, 0, 1]]
    }, 
    {
      "op": "Activation", 
      "name": "conv_1_relu", 
      "attrs": {"act_type": "relu"}, 
      "inputs": [[15, 0, 0]]
    }, 
    {
      "op": "null", 
      "name": "conv_2_conv2d_weight", 
      "attrs": {
        "kernel": "(3, 3)", 
        "no_bias": "True", 
        "num_filter": "64", 
        "pad": "(1, 1)", 
        "stride": "(1, 1)"
      }, 
      "inputs": []
    }, 
    {
      "op": "Convolution", 
      "name": "conv_2_conv2d", 
      "attrs": {
        "kernel": "(3, 3)", 
        "no_bias": "True", 
        "num_filter": "64", 
        "pad": "(1, 1)", 
        "stride": "(1, 1)"
      }, 
      "inputs": [[16, 0, 0], [17, 0, 0]]
    }, 
    {
      "op": "null", 
      "name": "conv_2_batchnorm_gamma", 
      "attrs": {"fix_gamma": "True"}, 
      "inputs": []
    }, 
    {
      "op": "null", 
      "name": "conv_2_batchnorm_beta", 
      "attrs": {"fix_gamma": "True"}, 
      "inputs": []
    }, 
    {
      "op": "null", 
      "name": "conv_2_batchnorm_moving_mean", 
      "attrs": {
        "__init__": "[\"zero\", {}]", 
        "fix_gamma": "True"
      }, 
      "inputs": []
    }, 
    {
      "op": "null", 
      "name": "conv_2_batchnorm_moving_var", 
      "attrs": {
        "__init__": "[\"one\", {}]", 
        "fix_gamma": "True"
      }, 
      "inputs": []
    }, 
    {
      "op": "BatchNorm", 
      "name": "conv_2_batchnorm", 
      "attrs": {"fix_gamma": "True"}, 
      "inputs": [[18, 0, 0], [19, 0, 0], [20, 0, 0], [21, 0, 1], [22, 0, 1]]
    }, 
    {
      "op": "Activation", 
      "name": "conv_2_relu", 
      "attrs": {"act_type": "relu"}, 
      "inputs": [[23, 0, 0]]
    }, 
    {
      "op": "Pooling", 
      "name": "pool", 
      "attrs": {
        "kernel": "(3, 3)", 
        "pool_type": "max", 
        "stride": "(2, 2)"
      }, 
      "inputs": [[24, 0, 0]]
    }, 
    {
      "op": "null", 
      "name": "conv_3_conv2d_weight", 
      "attrs": {
        "kernel": "(1, 1)", 
        "no_bias": "True", 
        "num_filter": "80", 
        "pad": "(0, 0)", 
        "stride": "(1, 1)"
      }, 
      "inputs": []
    }, 
    {
      "op": "Convolution", 
      "name": "conv_3_conv2d", 
      "attrs": {
        "kernel": "(1, 1)", 
        "no_bias": "True", 
        "num_filter": "80", 
        "pad": "(0, 0)", 
        "stride": "(1, 1)"
      }, 
      "inputs": [[25, 0, 0], [26, 0, 0]]
    }, 
    {
      "op": "null", 
      "name": "conv_3_batchnorm_gamma", 
      "attrs": {"fix_gamma": "True"}, 
      "inputs": []
    }, 
    {
      "op": "null", 
      "name": "conv_3_batchnorm_beta", 
      "attrs": {"fix_gamma": "True"}, 
      "inputs": []
    }, 
    {
      "op": "null", 
      "name": "conv_3_batchnorm_moving_mean", 
      "attrs": {
        "__init__": "[\"zero\", {}]", 
        "fix_gamma": "True"
      }, 
      "inputs": []
    }, 
    {
      "op": "null", 
      "name": "conv_3_batchnorm_moving_var", 
      "attrs": {
        "__init__": "[\"one\", {}]", 
        "fix_gamma": "True"
      }, 
      "inputs": []
    }, 
    {
      "op": "BatchNorm", 
      "name": "conv_3_batchnorm", 
      "attrs": {"fix_gamma": "True"}, 
      "inputs": [[27, 0, 0], [28, 0, 0], [29, 0, 0], [30, 0, 1], [31, 0, 1]]
    }, 
    {
      "op": "Activation", 
      "name": "conv_3_relu", 
      "attrs": {"act_type": "relu"}, 
      "inputs": [[32, 0, 0]]
    }, 
    {
      "op": "null", 
      "name": "conv_4_conv2d_weight", 
      "attrs": {
        "kernel": "(3, 3)", 
        "no_bias": "True", 
        "num_filter": "192", 
        "pad": "(0, 0)", 
        "stride": "(1, 1)"
      }, 
      "inputs": []
    }, 
    {
      "op": "Convolution", 
      "name": "conv_4_conv2d", 
      "attrs": {
        "kernel": "(3, 3)", 
        "no_bias": "True", 
        "num_filter": "192", 
        "pad": "(0, 0)", 
        "stride": "(1, 1)"
      }, 
      "inputs": [[33, 0, 0], [34, 0, 0]]
    }, 
    {
      "op": "null", 
      "name": "conv_4_batchnorm_gamma", 
      "attrs": {"fix_gamma": "True"}, 
      "inputs": []
    }, 
    {
      "op": "null", 
      "name": "conv_4_batchnorm_beta", 
      "attrs": {"fix_gamma": "True"}, 
      "inputs": []
    }, 
    {
      "op": "null", 
      "name": "conv_4_batchnorm_moving_mean", 
      "attrs": {
        "__init__": "[\"zero\", {}]", 
        "fix_gamma": "True"
      }, 
      "inputs": []
    }, 
    {
      "op": "null", 
      "name": "conv_4_batchnorm_moving_var", 
      "attrs": {
        "__init__": "[\"one\", {}]", 
        "fix_gamma": "True"
      }, 
      "inputs": []
    }, 
    {
      "op": "BatchNorm", 
      "name": "conv_4_batchnorm", 
      "attrs": {"fix_gamma": "True"}, 
      "inputs": [[35, 0, 0], [36, 0, 0], [37, 0, 0], [38, 0, 1], [39, 0, 1]]
    }, 
    {
      "op": "Activation", 
      "name": "conv_4_relu", 
      "attrs": {"act_type": "relu"}, 
      "inputs": [[40, 0, 0]]
    }, 
    {
      "op": "Pooling", 
      "name": "pool1", 
      "attrs": {
        "kernel": "(3, 3)", 
        "pool_type": "max", 
        "stride": "(2, 2)"
      }, 
      "inputs": [[41, 0, 0]]
    }, 
    {
      "op": "null", 
      "name": "mixed_conv_conv2d_weight", 
      "attrs": {
        "kernel": "(1, 1)", 
        "no_bias": "True", 
        "num_filter": "64", 
        "pad": "(0, 0)", 
        "stride": "(1, 1)"
      }, 
      "inputs": []
    }, 
    {
      "op": "Convolution", 
      "name": "mixed_conv_conv2d", 
      "attrs": {
        "kernel": "(1, 1)", 
        "no_bias": "True", 
        "num_filter": "64", 
        "pad": "(0, 0)", 
        "stride": "(1, 1)"
      }, 
      "inputs": [[42, 0, 0], [43, 0, 0]]
    }, 
    {
      "op": "null", 
      "name": "mixed_conv_batchnorm_gamma", 
      "attrs": {"fix_gamma": "True"}, 
      "inputs": []
    }, 
    {
      "op": "null", 
      "name": "mixed_conv_batchnorm_beta", 
      "attrs": {"fix_gamma": "True"}, 
      "inputs": []
    }, 
    {
      "op": "null", 
      "name": "mixed_conv_batchnorm_moving_mean", 
      "attrs": {
        "__init__": "[\"zero\", {}]", 
        "fix_gamma": "True"
      }, 
      "inputs": []
    }, 
    {
      "op": "null", 
      "name": "mixed_conv_batchnorm_moving_var", 
      "attrs": {
        "__init__": "[\"one\", {}]", 
        "fix_gamma": "True"
      }, 
      "inputs": []
    }, 
    {
      "op": "BatchNorm", 
      "name": "mixed_conv_batchnorm", 
      "attrs": {"fix_gamma": "True"}, 
      "inputs": [[44, 0, 0], [45, 0, 0], [46, 0, 0], [47, 0, 1], [48, 0, 1]]
    }, 
    {
      "op": "Activation", 
      "name": "mixed_conv_relu", 
      "attrs": {"act_type": "relu"}, 
      "inputs": [[49, 0, 0]]
    }, 
    {
      "op": "null", 
      "name": "mixed_tower_conv_conv2d_weight", 
      "attrs": {
        "kernel": "(1, 1)", 
        "no_bias": "True", 
        "num_filter": "48", 
        "pad": "(0, 0)", 
        "stride": "(1, 1)"
      }, 
      "inputs": []
    }, 
    {
      "op": "Convolution", 
      "name": "mixed_tower_conv_conv2d", 
      "attrs": {
        "kernel": "(1, 1)", 
        "no_bias": "True", 
        "num_filter": "48", 
        "pad": "(0, 0)", 
        "stride": "(1, 1)"
      }, 
      "inputs": [[42, 0, 0], [51, 0, 0]]
    }, 
    {
      "op": "null", 
      "name": "mixed_tower_conv_batchnorm_gamma", 
      "attrs": {"fix_gamma": "True"}, 
      "inputs": []
    }, 
    {
      "op": "null", 
      "name": "mixed_tower_conv_batchnorm_beta", 
      "attrs": {"fix_gamma": "True"}, 
      "inputs": []
    }, 
    {
      "op": "null", 
      "name": "mixed_tower_conv_batchnorm_moving_mean", 
      "attrs": {
        "__init__": "[\"zero\", {}]", 
        "fix_gamma": "True"
      }, 
      "inputs": []
    }, 
    {
      "op": "null", 
      "name": "mixed_tower_conv_batchnorm_moving_var", 
      "attrs": {
        "__init__": "[\"one\", {}]", 
        "fix_gamma": "True"
      }, 
      "inputs": []
    }, 
    {
      "op": "BatchNorm", 
      "name": "mixed_tower_conv_batchnorm", 
      "attrs": {"fix_gamma": "True"}, 
      "inputs": [[52, 0, 0], [53, 0, 0], [54, 0, 0], [55, 0, 1], [56, 0, 1]]
    }, 
    {
      "op": "Activation", 
      "name": "mixed_tower_conv_relu", 
      "attrs": {"act_type": "relu"}, 
      "inputs": [[57, 0, 0]]
    }, 
    {
      "op": "null", 
      "name": "mixed_tower_conv_1_conv2d_weight", 
      "attrs": {
        "kernel": "(5, 5)", 
        "no_bias": "True", 
        "num_filter": "64", 
        "pad": "(2, 2)", 
        "stride": "(1, 1)"
      }, 
      "inputs": []
    }, 
    {
      "op": "Convolution", 
      "name": "mixed_tower_conv_1_conv2d", 
      "attrs": {
        "kernel": "(5, 5)", 
        "no_bias": "True", 
        "num_filter": "64", 
        "pad": "(2, 2)", 
        "stride": "(1, 1)"
      }, 
      "inputs": [[58, 0, 0], [59, 0, 0]]
    }, 
    {
      "op": "null", 
      "name": "mixed_tower_conv_1_batchnorm_gamma", 
      "attrs": {"fix_gamma": "True"}, 
      "inputs": []
    }, 
    {
      "op": "null", 
      "name": "mixed_tower_conv_1_batchnorm_beta", 
      "attrs": {"fix_gamma": "True"}, 
      "inputs": []
    }, 
    {
      "op": "null", 
      "name": "mixed_tower_conv_1_batchnorm_moving_mean", 
      "attrs": {
        "__init__": "[\"zero\", {}]", 
        "fix_gamma": "True"
      }, 
      "inputs": []
    }, 
    {
      "op": "null", 
      "name": "mixed_tower_conv_1_batchnorm_moving_var", 
      "attrs": {
        "__init__": "[\"one\", {}]", 
        "fix_gamma": "True"
      }, 
      "inputs": []
    }, 
    {
      "op": "BatchNorm", 
      "name": "mixed_tower_conv_1_batchnorm", 
      "attrs": {"fix_gamma": "True"}, 
      "inputs": [[60, 0, 0], [61, 0, 0], [62, 0, 0], [63, 0, 1], [64, 0, 1]]
    }, 
    {
      "op": "Activation", 
      "name": "mixed_tower_conv_1_relu", 
      "attrs": {"act_type": "relu"}, 
      "inputs": [[65, 0, 0]]
    }, 
    {
      "op": "null", 
      "name": "mixed_tower_1_conv_conv2d_weight", 
      "attrs": {
        "kernel": "(1, 1)", 
        "no_bias": "True", 
        "num_filter": "64", 
        "pad": "(0, 0)", 
        "stride": "(1, 1)"
      }, 
      "inputs": []
    }, 
    {
      "op": "Convolution", 
      "name": "mixed_tower_1_conv_conv2d", 
      "attrs": {
        "kernel": "(1, 1)", 
        "no_bias": "True", 
        "num_filter": "64", 
        "pad": "(0, 0)", 
        "stride": "(1, 1)"
      }, 
      "inputs": [[42, 0, 0], [67, 0, 0]]
    }, 
    {
      "op": "null", 
      "name": "mixed_tower_1_conv_batchnorm_gamma", 
      "attrs": {"fix_gamma": "True"}, 
      "inputs": []
    }, 
    {
      "op": "null", 
      "name": "mixed_tower_1_conv_batchnorm_beta", 
      "attrs": {"fix_gamma": "True"}, 
      "inputs": []
    }, 
    {
      "op": "null", 
      "name": "mixed_tower_1_conv_batchnorm_moving_mean", 
      "attrs": {
        "__init__": "[\"zero\", {}]", 
        "fix_gamma": "True"
      }, 
      "inputs": []
    }, 
    {
      "op": "null", 
      "name": "mixed_tower_1_conv_batchnorm_moving_var", 
      "attrs": {
        "__init__": "[\"one\", {}]", 
        "fix_gamma": "True"
      }, 
      "inputs": []
    }, 
    {
      "op": "BatchNorm", 
      "name": "mixed_tower_1_conv_batchnorm", 
      "attrs": {"fix_gamma": "True"}, 
      "inputs": [[68, 0, 0], [69, 0, 0], [70, 0, 0], [71, 0, 1], [72, 0, 1]]
    }, 
    {
      "op": "Activation", 
      "name": "mixed_tower_1_conv_relu", 
      "attrs": {"act_type": "relu"}, 
      "inputs": [[73, 0, 0]]
    }, 
    {
      "op": "null", 
      "name": "mixed_tower_1_conv_1_conv2d_weight", 
      "attrs": {
        "kernel": "(3, 3)", 
        "no_bias": "True", 
        "num_filter": "96", 
        "pad": "(1, 1)", 
        "stride": "(1, 1)"
      }, 
      "inputs": []
    }, 
    {
      "op": "Convolution", 
      "name": "mixed_tower_1_conv_1_conv2d", 
      "attrs": {
        "kernel": "(3, 3)", 
        "no_bias": "True", 
        "num_filter": "96", 
        "pad": "(1, 1)", 
        "stride": "(1, 1)"
      }, 
      "inputs": [[74, 0, 0], [75, 0, 0]]
    }, 
    {
      "op": "null", 
      "name": "mixed_tower_1_conv_1_batchnorm_gamma", 
      "attrs": {"fix_gamma": "True"}, 
      "inputs": []
    }, 
    {
      "op": "null", 
      "name": "mixed_tower_1_conv_1_batchnorm_beta", 
      "attrs": {"fix_gamma": "True"}, 
      "inputs": []
    }, 
    {
      "op": "null", 
      "name": "mixed_tower_1_conv_1_batchnorm_moving_mean", 
      "attrs": {
        "__init__": "[\"zero\", {}]", 
        "fix_gamma": "True"
      }, 
      "inputs": []
    }, 
    {
      "op": "null", 
      "name": "mixed_tower_1_conv_1_batchnorm_moving_var", 
      "attrs": {
        "__init__": "[\"one\", {}]", 
        "fix_gamma": "True"
      }, 
      "inputs": []
    }, 
    {
      "op": "BatchNorm", 
      "name": "mixed_tower_1_conv_1_batchnorm", 
      "attrs": {"fix_gamma": "True"}, 
      "inputs": [[76, 0, 0], [77, 0, 0], [78, 0, 0], [79, 0, 1], [80, 0, 1]]
    }, 
    {
      "op": "Activation", 
      "name": "mixed_tower_1_conv_1_relu", 
      "attrs": {"act_type": "relu"}, 
      "inputs": [[81, 0, 0]]
    }, 
    {
      "op": "null", 
      "name": "mixed_tower_1_conv_2_conv2d_weight", 
      "attrs": {
        "kernel": "(3, 3)", 
        "no_bias": "True", 
        "num_filter": "96", 
        "pad": "(1, 1)", 
        "stride": "(1, 1)"
      }, 
      "inputs": []
    }, 
    {
      "op": "Convolution", 
      "name": "mixed_tower_1_conv_2_conv2d", 
      "attrs": {
        "kernel": "(3, 3)", 
        "no_bias": "True", 
        "num_filter": "96", 
        "pad": "(1, 1)", 
        "stride": "(1, 1)"
      }, 
      "inputs": [[82, 0, 0], [83, 0, 0]]
    }, 
    {
      "op": "null", 
      "name": "mixed_tower_1_conv_2_batchnorm_gamma", 
      "attrs": {"fix_gamma": "True"}, 
      "inputs": []
    }, 
    {
      "op": "null", 
      "name": "mixed_tower_1_conv_2_batchnorm_beta", 
      "attrs": {"fix_gamma": "True"}, 
      "inputs": []
    }, 
    {
      "op": "null", 
      "name": "mixed_tower_1_conv_2_batchnorm_moving_mean", 
      "attrs": {
        "__init__": "[\"zero\", {}]", 
        "fix_gamma": "True"
      }, 
      "inputs": []
    }, 
    {
      "op": "null", 
      "name": "mixed_tower_1_conv_2_batchnorm_moving_var", 
      "attrs": {
        "__init__": "[\"one\", {}]", 
        "fix_gamma": "True"
      }, 
      "inputs": []
    }, 
    {
      "op": "BatchNorm", 
      "name": "mixed_tower_1_conv_2_batchnorm", 
      "attrs": {"fix_gamma": "True"}, 
      "inputs": [[84, 0, 0], [85, 0, 0], [86, 0, 0], [87, 0, 1], [88, 0, 1]]
    }, 
    {
      "op": "Activation", 
      "name": "mixed_tower_1_conv_2_relu", 
      "attrs": {"act_type": "relu"}, 
      "inputs": [[89, 0, 0]]
    }, 
    {
      "op": "Pooling", 
      "name": "avg_pool_mixed_pool", 
      "attrs": {
        "kernel": "(3, 3)", 
        "pad": "(1, 1)", 
        "pool_type": "avg", 
        "stride": "(1, 1)"
      }, 
      "inputs": [[42, 0, 0]]
    }, 
    {
      "op": "null", 
      "name": "mixed_tower_2_conv_conv2d_weight", 
      "attrs": {
        "kernel": "(1, 1)", 
        "no_bias": "True", 
        "num_filter": "32", 
        "pad": "(0, 0)", 
        "stride": "(1, 1)"
      }, 
      "inputs": []
    }, 
    {
      "op": "Convolution", 
      "name": "mixed_tower_2_conv_conv2d", 
      "attrs": {
        "kernel": "(1, 1)", 
        "no_bias": "True", 
        "num_filter": "32", 
        "pad": "(0, 0)", 
        "stride": "(1, 1)"
      }, 
      "inputs": [[91, 0, 0], [92, 0, 0]]
    }, 
    {
      "op": "null", 
      "name": "mixed_tower_2_conv_batchnorm_gamma", 
      "attrs": {"fix_gamma": "True"}, 
      "inputs": []
    }, 
    {
      "op": "null", 
      "name": "mixed_tower_2_conv_batchnorm_beta", 
      "attrs": {"fix_gamma": "True"}, 
      "inputs": []
    }, 
    {
      "op": "null", 
      "name": "mixed_tower_2_conv_batchnorm_moving_mean", 
      "attrs": {
        "__init__": "[\"zero\", {}]", 
        "fix_gamma": "True"
      }, 
      "inputs": []
    }, 
    {
      "op": "null", 
      "name": "mixed_tower_2_conv_batchnorm_moving_var", 
      "attrs": {
        "__init__": "[\"one\", {}]", 
        "fix_gamma": "True"
      }, 
      "inputs": []
    }, 
    {
      "op": "BatchNorm", 
      "name": "mixed_tower_2_conv_batchnorm", 
      "attrs": {"fix_gamma": "True"}, 
      "inputs": [[93, 0, 0], [94, 0, 0], [95, 0, 0], [96, 0, 1], [97, 0, 1]]
    }, 
    {
      "op": "Activation", 
      "name": "mixed_tower_2_conv_relu", 
      "attrs": {"act_type": "relu"}, 
      "inputs": [[98, 0, 0]]
    }, 
    {
      "op": "Concat", 
      "name": "ch_concat_mixed_chconcat", 
      "attrs": {"num_args": "4"}, 
      "inputs": [[50, 0, 0], [66, 0, 0], [90, 0, 0], [99, 0, 0]]
    }, 
    {
      "op": "null", 
      "name": "mixed_1_conv_conv2d_weight", 
      "attrs": {
        "kernel": "(1, 1)", 
        "no_bias": "True", 
        "num_filter": "64", 
        "pad": "(0, 0)", 
        "stride": "(1, 1)"
      }, 
      "inputs": []
    }, 
    {
      "op": "Convolution", 
      "name": "mixed_1_conv_conv2d", 
      "attrs": {
        "kernel": "(1, 1)", 
        "no_bias": "True", 
        "num_filter": "64", 
        "pad": "(0, 0)", 
        "stride": "(1, 1)"
      }, 
      "inputs": [[100, 0, 0], [101, 0, 0]]
    }, 
    {
      "op": "null", 
      "name": "mixed_1_conv_batchnorm_gamma", 
      "attrs": {"fix_gamma": "True"}, 
      "inputs": []
    }, 
    {
      "op": "null", 
      "name": "mixed_1_conv_batchnorm_beta", 
      "attrs": {"fix_gamma": "True"}, 
      "inputs": []
    }, 
    {
      "op": "null", 
      "name": "mixed_1_conv_batchnorm_moving_mean", 
      "attrs": {
        "__init__": "[\"zero\", {}]", 
        "fix_gamma": "True"
      }, 
      "inputs": []
    }, 
    {
      "op": "null", 
      "name": "mixed_1_conv_batchnorm_moving_var", 
      "attrs": {
        "__init__": "[\"one\", {}]", 
        "fix_gamma": "True"
      }, 
      "inputs": []
    }, 
    {
      "op": "BatchNorm", 
      "name": "mixed_1_conv_batchnorm", 
      "attrs": {"fix_gamma": "True"}, 
      "inputs": [[102, 0, 0], [103, 0, 0], [104, 0, 0], [105, 0, 1], [106, 0, 1]]
    }, 
    {
      "op": "Activation", 
      "name": "mixed_1_conv_relu", 
      "attrs": {"act_type": "relu"}, 
      "inputs": [[107, 0, 0]]
    }, 
    {
      "op": "null", 
      "name": "mixed_1_tower_conv_conv2d_weight", 
      "attrs": {
        "kernel": "(1, 1)", 
        "no_bias": "True", 
        "num_filter": "48", 
        "pad": "(0, 0)", 
        "stride": "(1, 1)"
      }, 
      "inputs": []
    }, 
    {
      "op": "Convolution", 
      "name": "mixed_1_tower_conv_conv2d", 
      "attrs": {
        "kernel": "(1, 1)", 
        "no_bias": "True", 
        "num_filter": "48", 
        "pad": "(0, 0)", 
        "stride": "(1, 1)"
      }, 
      "inputs": [[100, 0, 0], [109, 0, 0]]
    }, 
    {
      "op": "null", 
      "name": "mixed_1_tower_conv_batchnorm_gamma", 
      "attrs": {"fix_gamma": "True"}, 
      "inputs": []
    }, 
    {
      "op": "null", 
      "name": "mixed_1_tower_conv_batchnorm_beta", 
      "attrs": {"fix_gamma": "True"}, 
      "inputs": []
    }, 
    {
      "op": "null", 
      "name": "mixed_1_tower_conv_batchnorm_moving_mean", 
      "attrs": {
        "__init__": "[\"zero\", {}]", 
        "fix_gamma": "True"
      }, 
      "inputs": []
    }, 
    {
      "op": "null", 
      "name": "mixed_1_tower_conv_batchnorm_moving_var", 
      "attrs": {
        "__init__": "[\"one\", {}]", 
        "fix_gamma": "True"
      }, 
      "inputs": []
    }, 
    {
      "op": "BatchNorm", 
      "name": "mixed_1_tower_conv_batchnorm", 
      "attrs": {"fix_gamma": "True"}, 
      "inputs": [[110, 0, 0], [111, 0, 0], [112, 0, 0], [113, 0, 1], [114, 0, 1]]
    }, 
    {
      "op": "Activation", 
      "name": "mixed_1_tower_conv_relu", 
      "attrs": {"act_type": "relu"}, 
      "inputs": [[115, 0, 0]]
    }, 
    {
      "op": "null", 
      "name": "mixed_1_tower_conv_1_conv2d_weight", 
      "attrs": {
        "kernel": "(5, 5)", 
        "no_bias": "True", 
        "num_filter": "64", 
        "pad": "(2, 2)", 
        "stride": "(1, 1)"
      }, 
      "inputs": []
    }, 
    {
      "op": "Convolution", 
      "name": "mixed_1_tower_conv_1_conv2d", 
      "attrs": {
        "kernel": "(5, 5)", 
        "no_bias": "True", 
        "num_filter": "64", 
        "pad": "(2, 2)", 
        "stride": "(1, 1)"
      }, 
      "inputs": [[116, 0, 0], [117, 0, 0]]
    }, 
    {
      "op": "null", 
      "name": "mixed_1_tower_conv_1_batchnorm_gamma", 
      "attrs": {"fix_gamma": "True"}, 
      "inputs": []
    }, 
    {
      "op": "null", 
      "name": "mixed_1_tower_conv_1_batchnorm_beta", 
      "attrs": {"fix_gamma": "True"}, 
      "inputs": []
    }, 
    {
      "op": "null", 
      "name": "mixed_1_tower_conv_1_batchnorm_moving_mean", 
      "attrs": {
        "__init__": "[\"zero\", {}]", 
        "fix_gamma": "True"
      }, 
      "inputs": []
    }, 
    {
      "op": "null", 
      "name": "mixed_1_tower_conv_1_batchnorm_moving_var", 
      "attrs": {
        "__init__": "[\"one\", {}]", 
        "fix_gamma": "True"
      }, 
      "inputs": []
    }, 
    {
      "op": "BatchNorm", 
      "name": "mixed_1_tower_conv_1_batchnorm", 
      "attrs": {"fix_gamma": "True"}, 
      "inputs": [[118, 0, 0], [119, 0, 0], [120, 0, 0], [121, 0, 1], [122, 0, 1]]
    }, 
    {
      "op": "Activation", 
      "name": "mixed_1_tower_conv_1_relu", 
      "attrs": {"act_type": "relu"}, 
      "inputs": [[123, 0, 0]]
    }, 
    {
      "op": "null", 
      "name": "mixed_1_tower_1_conv_conv2d_weight", 
      "attrs": {
        "kernel": "(1, 1)", 
        "no_bias": "True", 
        "num_filter": "64", 
        "pad": "(0, 0)", 
        "stride": "(1, 1)"
      }, 
      "inputs": []
    }, 
    {
      "op": "Convolution", 
      "name": "mixed_1_tower_1_conv_conv2d", 
      "attrs": {
        "kernel": "(1, 1)", 
        "no_bias": "True", 
        "num_filter": "64", 
        "pad": "(0, 0)", 
        "stride": "(1, 1)"
      }, 
      "inputs": [[100, 0, 0], [125, 0, 0]]
    }, 
    {
      "op": "null", 
      "name": "mixed_1_tower_1_conv_batchnorm_gamma", 
      "attrs": {"fix_gamma": "True"}, 
      "inputs": []
    }, 
    {
      "op": "null", 
      "name": "mixed_1_tower_1_conv_batchnorm_beta", 
      "attrs": {"fix_gamma": "True"}, 
      "inputs": []
    }, 
    {
      "op": "null", 
      "name": "mixed_1_tower_1_conv_batchnorm_moving_mean", 
      "attrs": {
        "__init__": "[\"zero\", {}]", 
        "fix_gamma": "True"
      }, 
      "inputs": []
    }, 
    {
      "op": "null", 
      "name": "mixed_1_tower_1_conv_batchnorm_moving_var", 
      "attrs": {
        "__init__": "[\"one\", {}]", 
        "fix_gamma": "True"
      }, 
      "inputs": []
    }, 
    {
      "op": "BatchNorm", 
      "name": "mixed_1_tower_1_conv_batchnorm", 
      "attrs": {"fix_gamma": "True"}, 
      "inputs": [[126, 0, 0], [127, 0, 0], [128, 0, 0], [129, 0, 1], [130, 0, 1]]
    }, 
    {
      "op": "Activation", 
      "name": "mixed_1_tower_1_conv_relu", 
      "attrs": {"act_type": "relu"}, 
      "inputs": [[131, 0, 0]]
    }, 
    {
      "op": "null", 
      "name": "mixed_1_tower_1_conv_1_conv2d_weight", 
      "attrs": {
        "kernel": "(3, 3)", 
        "no_bias": "True", 
        "num_filter": "96", 
        "pad": "(1, 1)", 
        "stride": "(1, 1)"
      }, 
      "inputs": []
    }, 
    {
      "op": "Convolution", 
      "name": "mixed_1_tower_1_conv_1_conv2d", 
      "attrs": {
        "kernel": "(3, 3)", 
        "no_bias": "True", 
        "num_filter": "96", 
        "pad": "(1, 1)", 
        "stride": "(1, 1)"
      }, 
      "inputs": [[132, 0, 0], [133, 0, 0]]
    }, 
    {
      "op": "null", 
      "name": "mixed_1_tower_1_conv_1_batchnorm_gamma", 
      "attrs": {"fix_gamma": "True"}, 
      "inputs": []
    }, 
    {
      "op": "null", 
      "name": "mixed_1_tower_1_conv_1_batchnorm_beta", 
      "attrs": {"fix_gamma": "True"}, 
      "inputs": []
    }, 
    {
      "op": "null", 
      "name": "mixed_1_tower_1_conv_1_batchnorm_moving_mean", 
      "attrs": {
        "__init__": "[\"zero\", {}]", 
        "fix_gamma": "True"
      }, 
      "inputs": []
    }, 
    {
      "op": "null", 
      "name": "mixed_1_tower_1_conv_1_batchnorm_moving_var", 
      "attrs": {
        "__init__": "[\"one\", {}]", 
        "fix_gamma": "True"
      }, 
      "inputs": []
    }, 
    {
      "op": "BatchNorm", 
      "name": "mixed_1_tower_1_conv_1_batchnorm", 
      "attrs": {"fix_gamma": "True"}, 
      "inputs": [[134, 0, 0], [135, 0, 0], [136, 0, 0], [137, 0, 1], [138, 0, 1]]
    }, 
    {
      "op": "Activation", 
      "name": "mixed_1_tower_1_conv_1_relu", 
      "attrs": {"act_type": "relu"}, 
      "inputs": [[139, 0, 0]]
    }, 
    {
      "op": "null", 
      "name": "mixed_1_tower_1_conv_2_conv2d_weight", 
      "attrs": {
        "kernel": "(3, 3)", 
        "no_bias": "True", 
        "num_filter": "96", 
        "pad": "(1, 1)", 
        "stride": "(1, 1)"
      }, 
      "inputs": []
    }, 
    {
      "op": "Convolution", 
      "name": "mixed_1_tower_1_conv_2_conv2d", 
      "attrs": {
        "kernel": "(3, 3)", 
        "no_bias": "True", 
        "num_filter": "96", 
        "pad": "(1, 1)", 
        "stride": "(1, 1)"
      }, 
      "inputs": [[140, 0, 0], [141, 0, 0]]
    }, 
    {
      "op": "null", 
      "name": "mixed_1_tower_1_conv_2_batchnorm_gamma", 
      "attrs": {"fix_gamma": "True"}, 
      "inputs": []
    }, 
    {
      "op": "null", 
      "name": "mixed_1_tower_1_conv_2_batchnorm_beta", 
      "attrs": {"fix_gamma": "True"}, 
      "inputs": []
    }, 
    {
      "op": "null", 
      "name": "mixed_1_tower_1_conv_2_batchnorm_moving_mean", 
      "attrs": {
        "__init__": "[\"zero\", {}]", 
        "fix_gamma": "True"
      }, 
      "inputs": []
    }, 
    {
      "op": "null", 
      "name": "mixed_1_tower_1_conv_2_batchnorm_moving_var", 
      "attrs": {
        "__init__": "[\"one\", {}]", 
        "fix_gamma": "True"
      }, 
      "inputs": []
    }, 
    {
      "op": "BatchNorm", 
      "name": "mixed_1_tower_1_conv_2_batchnorm", 
      "attrs": {"fix_gamma": "True"}, 
      "inputs": [[142, 0, 0], [143, 0, 0], [144, 0, 0], [145, 0, 1], [146, 0, 1]]
    }, 
    {
      "op": "Activation", 
      "name": "mixed_1_tower_1_conv_2_relu", 
      "attrs": {"act_type": "relu"}, 
      "inputs": [[147, 0, 0]]
    }, 
    {
      "op": "Pooling", 
      "name": "avg_pool_mixed_1_pool", 
      "attrs": {
        "kernel": "(3, 3)", 
        "pad": "(1, 1)", 
        "pool_type": "avg", 
        "stride": "(1, 1)"
      }, 
      "inputs": [[100, 0, 0]]
    }, 
    {
      "op": "null", 
      "name": "mixed_1_tower_2_conv_conv2d_weight", 
      "attrs": {
        "kernel": "(1, 1)", 
        "no_bias": "True", 
        "num_filter": "64", 
        "pad": "(0, 0)", 
        "stride": "(1, 1)"
      }, 
      "inputs": []
    }, 
    {
      "op": "Convolution", 
      "name": "mixed_1_tower_2_conv_conv2d", 
      "attrs": {
        "kernel": "(1, 1)", 
        "no_bias": "True", 
        "num_filter": "64", 
        "pad": "(0, 0)", 
        "stride": "(1, 1)"
      }, 
      "inputs": [[149, 0, 0], [150, 0, 0]]
    }, 
    {
      "op": "null", 
      "name": "mixed_1_tower_2_conv_batchnorm_gamma", 
      "attrs": {"fix_gamma": "True"}, 
      "inputs": []
    }, 
    {
      "op": "null", 
      "name": "mixed_1_tower_2_conv_batchnorm_beta", 
      "attrs": {"fix_gamma": "True"}, 
      "inputs": []
    }, 
    {
      "op": "null", 
      "name": "mixed_1_tower_2_conv_batchnorm_moving_mean", 
      "attrs": {
        "__init__": "[\"zero\", {}]", 
        "fix_gamma": "True"
      }, 
      "inputs": []
    }, 
    {
      "op": "null", 
      "name": "mixed_1_tower_2_conv_batchnorm_moving_var", 
      "attrs": {
        "__init__": "[\"one\", {}]", 
        "fix_gamma": "True"
      }, 
      "inputs": []
    }, 
    {
      "op": "BatchNorm", 
      "name": "mixed_1_tower_2_conv_batchnorm", 
      "attrs": {"fix_gamma": "True"}, 
      "inputs": [[151, 0, 0], [152, 0, 0], [153, 0, 0], [154, 0, 1], [155, 0, 1]]
    }, 
    {
      "op": "Activation", 
      "name": "mixed_1_tower_2_conv_relu", 
      "attrs": {"act_type": "relu"}, 
      "inputs": [[156, 0, 0]]
    }, 
    {
      "op": "Concat", 
      "name": "ch_concat_mixed_1_chconcat", 
      "attrs": {"num_args": "4"}, 
      "inputs": [[108, 0, 0], [124, 0, 0], [148, 0, 0], [157, 0, 0]]
    }, 
    {
      "op": "null", 
      "name": "mixed_2_conv_conv2d_weight", 
      "attrs": {
        "kernel": "(1, 1)", 
        "no_bias": "True", 
        "num_filter": "64", 
        "pad": "(0, 0)", 
        "stride": "(1, 1)"
      }, 
      "inputs": []
    }, 
    {
      "op": "Convolution", 
      "name": "mixed_2_conv_conv2d", 
      "attrs": {
        "kernel": "(1, 1)", 
        "no_bias": "True", 
        "num_filter": "64", 
        "pad": "(0, 0)", 
        "stride": "(1, 1)"
      }, 
      "inputs": [[158, 0, 0], [159, 0, 0]]
    }, 
    {
      "op": "null", 
      "name": "mixed_2_conv_batchnorm_gamma", 
      "attrs": {"fix_gamma": "True"}, 
      "inputs": []
    }, 
    {
      "op": "null", 
      "name": "mixed_2_conv_batchnorm_beta", 
      "attrs": {"fix_gamma": "True"}, 
      "inputs": []
    }, 
    {
      "op": "null", 
      "name": "mixed_2_conv_batchnorm_moving_mean", 
      "attrs": {
        "__init__": "[\"zero\", {}]", 
        "fix_gamma": "True"
      }, 
      "inputs": []
    }, 
    {
      "op": "null", 
      "name": "mixed_2_conv_batchnorm_moving_var", 
      "attrs": {
        "__init__": "[\"one\", {}]", 
        "fix_gamma": "True"
      }, 
      "inputs": []
    }, 
    {
      "op": "BatchNorm", 
      "name": "mixed_2_conv_batchnorm", 
      "attrs": {"fix_gamma": "True"}, 
      "inputs": [[160, 0, 0], [161, 0, 0], [162, 0, 0], [163, 0, 1], [164, 0, 1]]
    }, 
    {
      "op": "Activation", 
      "name": "mixed_2_conv_relu", 
      "attrs": {"act_type": "relu"}, 
      "inputs": [[165, 0, 0]]
    }, 
    {
      "op": "null", 
      "name": "mixed_2_tower_conv_conv2d_weight", 
      "attrs": {
        "kernel": "(1, 1)", 
        "no_bias": "True", 
        "num_filter": "48", 
        "pad": "(0, 0)", 
        "stride": "(1, 1)"
      }, 
      "inputs": []
    }, 
    {
      "op": "Convolution", 
      "name": "mixed_2_tower_conv_conv2d", 
      "attrs": {
        "kernel": "(1, 1)", 
        "no_bias": "True", 
        "num_filter": "48", 
        "pad": "(0, 0)", 
        "stride": "(1, 1)"
      }, 
      "inputs": [[158, 0, 0], [167, 0, 0]]
    }, 
    {
      "op": "null", 
      "name": "mixed_2_tower_conv_batchnorm_gamma", 
      "attrs": {"fix_gamma": "True"}, 
      "inputs": []
    }, 
    {
      "op": "null", 
      "name": "mixed_2_tower_conv_batchnorm_beta", 
      "attrs": {"fix_gamma": "True"}, 
      "inputs": []
    }, 
    {
      "op": "null", 
      "name": "mixed_2_tower_conv_batchnorm_moving_mean", 
      "attrs": {
        "__init__": "[\"zero\", {}]", 
        "fix_gamma": "True"
      }, 
      "inputs": []
    }, 
    {
      "op": "null", 
      "name": "mixed_2_tower_conv_batchnorm_moving_var", 
      "attrs": {
        "__init__": "[\"one\", {}]", 
        "fix_gamma": "True"
      }, 
      "inputs": []
    }, 
    {
      "op": "BatchNorm", 
      "name": "mixed_2_tower_conv_batchnorm", 
      "attrs": {"fix_gamma": "True"}, 
      "inputs": [[168, 0, 0], [169, 0, 0], [170, 0, 0], [171, 0, 1], [172, 0, 1]]
    }, 
    {
      "op": "Activation", 
      "name": "mixed_2_tower_conv_relu", 
      "attrs": {"act_type": "relu"}, 
      "inputs": [[173, 0, 0]]
    }, 
    {
      "op": "null", 
      "name": "mixed_2_tower_conv_1_conv2d_weight", 
      "attrs": {
        "kernel": "(5, 5)", 
        "no_bias": "True", 
        "num_filter": "64", 
        "pad": "(2, 2)", 
        "stride": "(1, 1)"
      }, 
      "inputs": []
    }, 
    {
      "op": "Convolution", 
      "name": "mixed_2_tower_conv_1_conv2d", 
      "attrs": {
        "kernel": "(5, 5)", 
        "no_bias": "True", 
        "num_filter": "64", 
        "pad": "(2, 2)", 
        "stride": "(1, 1)"
      }, 
      "inputs": [[174, 0, 0], [175, 0, 0]]
    }, 
    {
      "op": "null", 
      "name": "mixed_2_tower_conv_1_batchnorm_gamma", 
      "attrs": {"fix_gamma": "True"}, 
      "inputs": []
    }, 
    {
      "op": "null", 
      "name": "mixed_2_tower_conv_1_batchnorm_beta", 
      "attrs": {"fix_gamma": "True"}, 
      "inputs": []
    }, 
    {
      "op": "null", 
      "name": "mixed_2_tower_conv_1_batchnorm_moving_mean", 
      "attrs": {
        "__init__": "[\"zero\", {}]", 
        "fix_gamma": "True"
      }, 
      "inputs": []
    }, 
    {
      "op": "null", 
      "name": "mixed_2_tower_conv_1_batchnorm_moving_var", 
      "attrs": {
        "__init__": "[\"one\", {}]", 
        "fix_gamma": "True"
      }, 
      "inputs": []
    }, 
    {
      "op": "BatchNorm", 
      "name": "mixed_2_tower_conv_1_batchnorm", 
      "attrs": {"fix_gamma": "True"}, 
      "inputs": [[176, 0, 0], [177, 0, 0], [178, 0, 0], [179, 0, 1], [180, 0, 1]]
    }, 
    {
      "op": "Activation", 
      "name": "mixed_2_tower_conv_1_relu", 
      "attrs": {"act_type": "relu"}, 
      "inputs": [[181, 0, 0]]
    }, 
    {
      "op": "null", 
      "name": "mixed_2_tower_1_conv_conv2d_weight", 
      "attrs": {
        "kernel": "(1, 1)", 
        "no_bias": "True", 
        "num_filter": "64", 
        "pad": "(0, 0)", 
        "stride": "(1, 1)"
      }, 
      "inputs": []
    }, 
    {
      "op": "Convolution", 
      "name": "mixed_2_tower_1_conv_conv2d", 
      "attrs": {
        "kernel": "(1, 1)", 
        "no_bias": "True", 
        "num_filter": "64", 
        "pad": "(0, 0)", 
        "stride": "(1, 1)"
      }, 
      "inputs": [[158, 0, 0], [183, 0, 0]]
    }, 
    {
      "op": "null", 
      "name": "mixed_2_tower_1_conv_batchnorm_gamma", 
      "attrs": {"fix_gamma": "True"}, 
      "inputs": []
    }, 
    {
      "op": "null", 
      "name": "mixed_2_tower_1_conv_batchnorm_beta", 
      "attrs": {"fix_gamma": "True"}, 
      "inputs": []
    }, 
    {
      "op": "null", 
      "name": "mixed_2_tower_1_conv_batchnorm_moving_mean", 
      "attrs": {
        "__init__": "[\"zero\", {}]", 
        "fix_gamma": "True"
      }, 
      "inputs": []
    }, 
    {
      "op": "null", 
      "name": "mixed_2_tower_1_conv_batchnorm_moving_var", 
      "attrs": {
        "__init__": "[\"one\", {}]", 
        "fix_gamma": "True"
      }, 
      "inputs": []
    }, 
    {
      "op": "BatchNorm", 
      "name": "mixed_2_tower_1_conv_batchnorm", 
      "attrs": {"fix_gamma": "True"}, 
      "inputs": [[184, 0, 0], [185, 0, 0], [186, 0, 0], [187, 0, 1], [188, 0, 1]]
    }, 
    {
      "op": "Activation", 
      "name": "mixed_2_tower_1_conv_relu", 
      "attrs": {"act_type": "relu"}, 
      "inputs": [[189, 0, 0]]
    }, 
    {
      "op": "null", 
      "name": "mixed_2_tower_1_conv_1_conv2d_weight", 
      "attrs": {
        "kernel": "(3, 3)", 
        "no_bias": "True", 
        "num_filter": "96", 
        "pad": "(1, 1)", 
        "stride": "(1, 1)"
      }, 
      "inputs": []
    }, 
    {
      "op": "Convolution", 
      "name": "mixed_2_tower_1_conv_1_conv2d", 
      "attrs": {
        "kernel": "(3, 3)", 
        "no_bias": "True", 
        "num_filter": "96", 
        "pad": "(1, 1)", 
        "stride": "(1, 1)"
      }, 
      "inputs": [[190, 0, 0], [191, 0, 0]]
    }, 
    {
      "op": "null", 
      "name": "mixed_2_tower_1_conv_1_batchnorm_gamma", 
      "attrs": {"fix_gamma": "True"}, 
      "inputs": []
    }, 
    {
      "op": "null", 
      "name": "mixed_2_tower_1_conv_1_batchnorm_beta", 
      "attrs": {"fix_gamma": "True"}, 
      "inputs": []
    }, 
    {
      "op": "null", 
      "name": "mixed_2_tower_1_conv_1_batchnorm_moving_mean", 
      "attrs": {
        "__init__": "[\"zero\", {}]", 
        "fix_gamma": "True"
      }, 
      "inputs": []
    }, 
    {
      "op": "null", 
      "name": "mixed_2_tower_1_conv_1_batchnorm_moving_var", 
      "attrs": {
        "__init__": "[\"one\", {}]", 
        "fix_gamma": "True"
      }, 
      "inputs": []
    }, 
    {
      "op": "BatchNorm", 
      "name": "mixed_2_tower_1_conv_1_batchnorm", 
      "attrs": {"fix_gamma": "True"}, 
      "inputs": [[192, 0, 0], [193, 0, 0], [194, 0, 0], [195, 0, 1], [196, 0, 1]]
    }, 
    {
      "op": "Activation", 
      "name": "mixed_2_tower_1_conv_1_relu", 
      "attrs": {"act_type": "relu"}, 
      "inputs": [[197, 0, 0]]
    }, 
    {
      "op": "null", 
      "name": "mixed_2_tower_1_conv_2_conv2d_weight", 
      "attrs": {
        "kernel": "(3, 3)", 
        "no_bias": "True", 
        "num_filter": "96", 
        "pad": "(1, 1)", 
        "stride": "(1, 1)"
      }, 
      "inputs": []
    }, 
    {
      "op": "Convolution", 
      "name": "mixed_2_tower_1_conv_2_conv2d", 
      "attrs": {
        "kernel": "(3, 3)", 
        "no_bias": "True", 
        "num_filter": "96", 
        "pad": "(1, 1)", 
        "stride": "(1, 1)"
      }, 
      "inputs": [[198, 0, 0], [199, 0, 0]]
    }, 
    {
      "op": "null", 
      "name": "mixed_2_tower_1_conv_2_batchnorm_gamma", 
      "attrs": {"fix_gamma": "True"}, 
      "inputs": []
    }, 
    {
      "op": "null", 
      "name": "mixed_2_tower_1_conv_2_batchnorm_beta", 
      "attrs": {"fix_gamma": "True"}, 
      "inputs": []
    }, 
    {
      "op": "null", 
      "name": "mixed_2_tower_1_conv_2_batchnorm_moving_mean", 
      "attrs": {
        "__init__": "[\"zero\", {}]", 
        "fix_gamma": "True"
      }, 
      "inputs": []
    }, 
    {
      "op": "null", 
      "name": "mixed_2_tower_1_conv_2_batchnorm_moving_var", 
      "attrs": {
        "__init__": "[\"one\", {}]", 
        "fix_gamma": "True"
      }, 
      "inputs": []
    }, 
    {
      "op": "BatchNorm", 
      "name": "mixed_2_tower_1_conv_2_batchnorm", 
      "attrs": {"fix_gamma": "True"}, 
      "inputs": [[200, 0, 0], [201, 0, 0], [202, 0, 0], [203, 0, 1], [204, 0, 1]]
    }, 
    {
      "op": "Activation", 
      "name": "mixed_2_tower_1_conv_2_relu", 
      "attrs": {"act_type": "relu"}, 
      "inputs": [[205, 0, 0]]
    }, 
    {
      "op": "Pooling", 
      "name": "avg_pool_mixed_2_pool", 
      "attrs": {
        "kernel": "(3, 3)", 
        "pad": "(1, 1)", 
        "pool_type": "avg", 
        "stride": "(1, 1)"
      }, 
      "inputs": [[158, 0, 0]]
    }, 
    {
      "op": "null", 
      "name": "mixed_2_tower_2_conv_conv2d_weight", 
      "attrs": {
        "kernel": "(1, 1)", 
        "no_bias": "True", 
        "num_filter": "64", 
        "pad": "(0, 0)", 
        "stride": "(1, 1)"
      }, 
      "inputs": []
    }, 
    {
      "op": "Convolution", 
      "name": "mixed_2_tower_2_conv_conv2d", 
      "attrs": {
        "kernel": "(1, 1)", 
        "no_bias": "True", 
        "num_filter": "64", 
        "pad": "(0, 0)", 
        "stride": "(1, 1)"
      }, 
      "inputs": [[207, 0, 0], [208, 0, 0]]
    }, 
    {
      "op": "null", 
      "name": "mixed_2_tower_2_conv_batchnorm_gamma", 
      "attrs": {"fix_gamma": "True"}, 
      "inputs": []
    }, 
    {
      "op": "null", 
      "name": "mixed_2_tower_2_conv_batchnorm_beta", 
      "attrs": {"fix_gamma": "True"}, 
      "inputs": []
    }, 
    {
      "op": "null", 
      "name": "mixed_2_tower_2_conv_batchnorm_moving_mean", 
      "attrs": {
        "__init__": "[\"zero\", {}]", 
        "fix_gamma": "True"
      }, 
      "inputs": []
    }, 
    {
      "op": "null", 
      "name": "mixed_2_tower_2_conv_batchnorm_moving_var", 
      "attrs": {
        "__init__": "[\"one\", {}]", 
        "fix_gamma": "True"
      }, 
      "inputs": []
    }, 
    {
      "op": "BatchNorm", 
      "name": "mixed_2_tower_2_conv_batchnorm", 
      "attrs": {"fix_gamma": "True"}, 
      "inputs": [[209, 0, 0], [210, 0, 0], [211, 0, 0], [212, 0, 1], [213, 0, 1]]
    }, 
    {
      "op": "Activation", 
      "name": "mixed_2_tower_2_conv_relu", 
      "attrs": {"act_type": "relu"}, 
      "inputs": [[214, 0, 0]]
    }, 
    {
      "op": "Concat", 
      "name": "ch_concat_mixed_2_chconcat", 
      "attrs": {"num_args": "4"}, 
      "inputs": [[166, 0, 0], [182, 0, 0], [206, 0, 0], [215, 0, 0]]
    }, 
    {
      "op": "null", 
      "name": "mixed_3_conv_conv2d_weight", 
      "attrs": {
        "kernel": "(3, 3)", 
        "no_bias": "True", 
        "num_filter": "384", 
        "pad": "(0, 0)", 
        "stride": "(2, 2)"
      }, 
      "inputs": []
    }, 
    {
      "op": "Convolution", 
      "name": "mixed_3_conv_conv2d", 
      "attrs": {
        "kernel": "(3, 3)", 
        "no_bias": "True", 
        "num_filter": "384", 
        "pad": "(0, 0)", 
        "stride": "(2, 2)"
      }, 
      "inputs": [[216, 0, 0], [217, 0, 0]]
    }, 
    {
      "op": "null", 
      "name": "mixed_3_conv_batchnorm_gamma", 
      "attrs": {"fix_gamma": "True"}, 
      "inputs": []
    }, 
    {
      "op": "null", 
      "name": "mixed_3_conv_batchnorm_beta", 
      "attrs": {"fix_gamma": "True"}, 
      "inputs": []
    }, 
    {
      "op": "null", 
      "name": "mixed_3_conv_batchnorm_moving_mean", 
      "attrs": {
        "__init__": "[\"zero\", {}]", 
        "fix_gamma": "True"
      }, 
      "inputs": []
    }, 
    {
      "op": "null", 
      "name": "mixed_3_conv_batchnorm_moving_var", 
      "attrs": {
        "__init__": "[\"one\", {}]", 
        "fix_gamma": "True"
      }, 
      "inputs": []
    }, 
    {
      "op": "BatchNorm", 
      "name": "mixed_3_conv_batchnorm", 
      "attrs": {"fix_gamma": "True"}, 
      "inputs": [[218, 0, 0], [219, 0, 0], [220, 0, 0], [221, 0, 1], [222, 0, 1]]
    }, 
    {
      "op": "Activation", 
      "name": "mixed_3_conv_relu", 
      "attrs": {"act_type": "relu"}, 
      "inputs": [[223, 0, 0]]
    }, 
    {
      "op": "null", 
      "name": "mixed_3_tower_conv_conv2d_weight", 
      "attrs": {
        "kernel": "(1, 1)", 
        "no_bias": "True", 
        "num_filter": "64", 
        "pad": "(0, 0)", 
        "stride": "(1, 1)"
      }, 
      "inputs": []
    }, 
    {
      "op": "Convolution", 
      "name": "mixed_3_tower_conv_conv2d", 
      "attrs": {
        "kernel": "(1, 1)", 
        "no_bias": "True", 
        "num_filter": "64", 
        "pad": "(0, 0)", 
        "stride": "(1, 1)"
      }, 
      "inputs": [[216, 0, 0], [225, 0, 0]]
    }, 
    {
      "op": "null", 
      "name": "mixed_3_tower_conv_batchnorm_gamma", 
      "attrs": {"fix_gamma": "True"}, 
      "inputs": []
    }, 
    {
      "op": "null", 
      "name": "mixed_3_tower_conv_batchnorm_beta", 
      "attrs": {"fix_gamma": "True"}, 
      "inputs": []
    }, 
    {
      "op": "null", 
      "name": "mixed_3_tower_conv_batchnorm_moving_mean", 
      "attrs": {
        "__init__": "[\"zero\", {}]", 
        "fix_gamma": "True"
      }, 
      "inputs": []
    }, 
    {
      "op": "null", 
      "name": "mixed_3_tower_conv_batchnorm_moving_var", 
      "attrs": {
        "__init__": "[\"one\", {}]", 
        "fix_gamma": "True"
      }, 
      "inputs": []
    }, 
    {
      "op": "BatchNorm", 
      "name": "mixed_3_tower_conv_batchnorm", 
      "attrs": {"fix_gamma": "True"}, 
      "inputs": [[226, 0, 0], [227, 0, 0], [228, 0, 0], [229, 0, 1], [230, 0, 1]]
    }, 
    {
      "op": "Activation", 
      "name": "mixed_3_tower_conv_relu", 
      "attrs": {"act_type": "relu"}, 
      "inputs": [[231, 0, 0]]
    }, 
    {
      "op": "null", 
      "name": "mixed_3_tower_conv_1_conv2d_weight", 
      "attrs": {
        "kernel": "(3, 3)", 
        "no_bias": "True", 
        "num_filter": "96", 
        "pad": "(1, 1)", 
        "stride": "(1, 1)"
      }, 
      "inputs": []
    }, 
    {
      "op": "Convolution", 
      "name": "mixed_3_tower_conv_1_conv2d", 
      "attrs": {
        "kernel": "(3, 3)", 
        "no_bias": "True", 
        "num_filter": "96", 
        "pad": "(1, 1)", 
        "stride": "(1, 1)"
      }, 
      "inputs": [[232, 0, 0], [233, 0, 0]]
    }, 
    {
      "op": "null", 
      "name": "mixed_3_tower_conv_1_batchnorm_gamma", 
      "attrs": {"fix_gamma": "True"}, 
      "inputs": []
    }, 
    {
      "op": "null", 
      "name": "mixed_3_tower_conv_1_batchnorm_beta", 
      "attrs": {"fix_gamma": "True"}, 
      "inputs": []
    }, 
    {
      "op": "null", 
      "name": "mixed_3_tower_conv_1_batchnorm_moving_mean", 
      "attrs": {
        "__init__": "[\"zero\", {}]", 
        "fix_gamma": "True"
      }, 
      "inputs": []
    }, 
    {
      "op": "null", 
      "name": "mixed_3_tower_conv_1_batchnorm_moving_var", 
      "attrs": {
        "__init__": "[\"one\", {}]", 
        "fix_gamma": "True"
      }, 
      "inputs": []
    }, 
    {
      "op": "BatchNorm", 
      "name": "mixed_3_tower_conv_1_batchnorm", 
      "attrs": {"fix_gamma": "True"}, 
      "inputs": [[234, 0, 0], [235, 0, 0], [236, 0, 0], [237, 0, 1], [238, 0, 1]]
    }, 
    {
      "op": "Activation", 
      "name": "mixed_3_tower_conv_1_relu", 
      "attrs": {"act_type": "relu"}, 
      "inputs": [[239, 0, 0]]
    }, 
    {
      "op": "null", 
      "name": "mixed_3_tower_conv_2_conv2d_weight", 
      "attrs": {
        "kernel": "(3, 3)", 
        "no_bias": "True", 
        "num_filter": "96", 
        "pad": "(0, 0)", 
        "stride": "(2, 2)"
      }, 
      "inputs": []
    }, 
    {
      "op": "Convolution", 
      "name": "mixed_3_tower_conv_2_conv2d", 
      "attrs": {
        "kernel": "(3, 3)", 
        "no_bias": "True", 
        "num_filter": "96", 
        "pad": "(0, 0)", 
        "stride": "(2, 2)"
      }, 
      "inputs": [[240, 0, 0], [241, 0, 0]]
    }, 
    {
      "op": "null", 
      "name": "mixed_3_tower_conv_2_batchnorm_gamma", 
      "attrs": {"fix_gamma": "True"}, 
      "inputs": []
    }, 
    {
      "op": "null", 
      "name": "mixed_3_tower_conv_2_batchnorm_beta", 
      "attrs": {"fix_gamma": "True"}, 
      "inputs": []
    }, 
    {
      "op": "null", 
      "name": "mixed_3_tower_conv_2_batchnorm_moving_mean", 
      "attrs": {
        "__init__": "[\"zero\", {}]", 
        "fix_gamma": "True"
      }, 
      "inputs": []
    }, 
    {
      "op": "null", 
      "name": "mixed_3_tower_conv_2_batchnorm_moving_var", 
      "attrs": {
        "__init__": "[\"one\", {}]", 
        "fix_gamma": "True"
      }, 
      "inputs": []
    }, 
    {
      "op": "BatchNorm", 
      "name": "mixed_3_tower_conv_2_batchnorm", 
      "attrs": {"fix_gamma": "True"}, 
      "inputs": [[242, 0, 0], [243, 0, 0], [244, 0, 0], [245, 0, 1], [246, 0, 1]]
    }, 
    {
      "op": "Activation", 
      "name": "mixed_3_tower_conv_2_relu", 
      "attrs": {"act_type": "relu"}, 
      "inputs": [[247, 0, 0]]
    }, 
    {
      "op": "Pooling", 
      "name": "max_pool_mixed_3_pool", 
      "attrs": {
        "kernel": "(3, 3)", 
        "pad": "(0, 0)", 
        "pool_type": "max", 
        "stride": "(2, 2)"
      }, 
      "inputs": [[216, 0, 0]]
    }, 
    {
      "op": "Concat", 
      "name": "ch_concat_mixed_3_chconcat", 
      "attrs": {"num_args": "3"}, 
      "inputs": [[224, 0, 0], [248, 0, 0], [249, 0, 0]]
    }, 
    {
      "op": "null", 
      "name": "mixed_4_conv_conv2d_weight", 
      "attrs": {
        "kernel": "(1, 1)", 
        "no_bias": "True", 
        "num_filter": "192", 
        "pad": "(0, 0)", 
        "stride": "(1, 1)"
      }, 
      "inputs": []
    }, 
    {
      "op": "Convolution", 
      "name": "mixed_4_conv_conv2d", 
      "attrs": {
        "kernel": "(1, 1)", 
        "no_bias": "True", 
        "num_filter": "192", 
        "pad": "(0, 0)", 
        "stride": "(1, 1)"
      }, 
      "inputs": [[250, 0, 0], [251, 0, 0]]
    }, 
    {
      "op": "null", 
      "name": "mixed_4_conv_batchnorm_gamma", 
      "attrs": {"fix_gamma": "True"}, 
      "inputs": []
    }, 
    {
      "op": "null", 
      "name": "mixed_4_conv_batchnorm_beta", 
      "attrs": {"fix_gamma": "True"}, 
      "inputs": []
    }, 
    {
      "op": "null", 
      "name": "mixed_4_conv_batchnorm_moving_mean", 
      "attrs": {
        "__init__": "[\"zero\", {}]", 
        "fix_gamma": "True"
      }, 
      "inputs": []
    }, 
    {
      "op": "null", 
      "name": "mixed_4_conv_batchnorm_moving_var", 
      "attrs": {
        "__init__": "[\"one\", {}]", 
        "fix_gamma": "True"
      }, 
      "inputs": []
    }, 
    {
      "op": "BatchNorm", 
      "name": "mixed_4_conv_batchnorm", 
      "attrs": {"fix_gamma": "True"}, 
      "inputs": [[252, 0, 0], [253, 0, 0], [254, 0, 0], [255, 0, 1], [256, 0, 1]]
    }, 
    {
      "op": "Activation", 
      "name": "mixed_4_conv_relu", 
      "attrs": {"act_type": "relu"}, 
      "inputs": [[257, 0, 0]]
    }, 
    {
      "op": "null", 
      "name": "mixed_4_tower_conv_conv2d_weight", 
      "attrs": {
        "kernel": "(1, 1)", 
        "no_bias": "True", 
        "num_filter": "128", 
        "pad": "(0, 0)", 
        "stride": "(1, 1)"
      }, 
      "inputs": []
    }, 
    {
      "op": "Convolution", 
      "name": "mixed_4_tower_conv_conv2d", 
      "attrs": {
        "kernel": "(1, 1)", 
        "no_bias": "True", 
        "num_filter": "128", 
        "pad": "(0, 0)", 
        "stride": "(1, 1)"
      }, 
      "inputs": [[250, 0, 0], [259, 0, 0]]
    }, 
    {
      "op": "null", 
      "name": "mixed_4_tower_conv_batchnorm_gamma", 
      "attrs": {"fix_gamma": "True"}, 
      "inputs": []
    }, 
    {
      "op": "null", 
      "name": "mixed_4_tower_conv_batchnorm_beta", 
      "attrs": {"fix_gamma": "True"}, 
      "inputs": []
    }, 
    {
      "op": "null", 
      "name": "mixed_4_tower_conv_batchnorm_moving_mean", 
      "attrs": {
        "__init__": "[\"zero\", {}]", 
        "fix_gamma": "True"
      }, 
      "inputs": []
    }, 
    {
      "op": "null", 
      "name": "mixed_4_tower_conv_batchnorm_moving_var", 
      "attrs": {
        "__init__": "[\"one\", {}]", 
        "fix_gamma": "True"
      }, 
      "inputs": []
    }, 
    {
      "op": "BatchNorm", 
      "name": "mixed_4_tower_conv_batchnorm", 
      "attrs": {"fix_gamma": "True"}, 
      "inputs": [[260, 0, 0], [261, 0, 0], [262, 0, 0], [263, 0, 1], [264, 0, 1]]
    }, 
    {
      "op": "Activation", 
      "name": "mixed_4_tower_conv_relu", 
      "attrs": {"act_type": "relu"}, 
      "inputs": [[265, 0, 0]]
    }, 
    {
      "op": "null", 
      "name": "mixed_4_tower_conv_1_conv2d_weight", 
      "attrs": {
        "kernel": "(1, 7)", 
        "no_bias": "True", 
        "num_filter": "128", 
        "pad": "(0, 3)", 
        "stride": "(1, 1)"
      }, 
      "inputs": []
    }, 
    {
      "op": "Convolution", 
      "name": "mixed_4_tower_conv_1_conv2d", 
      "attrs": {
        "kernel": "(1, 7)", 
        "no_bias": "True", 
        "num_filter": "128", 
        "pad": "(0, 3)", 
        "stride": "(1, 1)"
      }, 
      "inputs": [[266, 0, 0], [267, 0, 0]]
    }, 
    {
      "op": "null", 
      "name": "mixed_4_tower_conv_1_batchnorm_gamma", 
      "attrs": {"fix_gamma": "True"}, 
      "inputs": []
    }, 
    {
      "op": "null", 
      "name": "mixed_4_tower_conv_1_batchnorm_beta", 
      "attrs": {"fix_gamma": "True"}, 
      "inputs": []
    }, 
    {
      "op": "null", 
      "name": "mixed_4_tower_conv_1_batchnorm_moving_mean", 
      "attrs": {
        "__init__": "[\"zero\", {}]", 
        "fix_gamma": "True"
      }, 
      "inputs": []
    }, 
    {
      "op": "null", 
      "name": "mixed_4_tower_conv_1_batchnorm_moving_var", 
      "attrs": {
        "__init__": "[\"one\", {}]", 
        "fix_gamma": "True"
      }, 
      "inputs": []
    }, 
    {
      "op": "BatchNorm", 
      "name": "mixed_4_tower_conv_1_batchnorm", 
      "attrs": {"fix_gamma": "True"}, 
      "inputs": [[268, 0, 0], [269, 0, 0], [270, 0, 0], [271, 0, 1], [272, 0, 1]]
    }, 
    {
      "op": "Activation", 
      "name": "mixed_4_tower_conv_1_relu", 
      "attrs": {"act_type": "relu"}, 
      "inputs": [[273, 0, 0]]
    }, 
    {
      "op": "null", 
      "name": "mixed_4_tower_conv_2_conv2d_weight", 
      "attrs": {
        "kernel": "(7, 1)", 
        "no_bias": "True", 
        "num_filter": "192", 
        "pad": "(3, 0)", 
        "stride": "(1, 1)"
      }, 
      "inputs": []
    }, 
    {
      "op": "Convolution", 
      "name": "mixed_4_tower_conv_2_conv2d", 
      "attrs": {
        "kernel": "(7, 1)", 
        "no_bias": "True", 
        "num_filter": "192", 
        "pad": "(3, 0)", 
        "stride": "(1, 1)"
      }, 
      "inputs": [[274, 0, 0], [275, 0, 0]]
    }, 
    {
      "op": "null", 
      "name": "mixed_4_tower_conv_2_batchnorm_gamma", 
      "attrs": {"fix_gamma": "True"}, 
      "inputs": []
    }, 
    {
      "op": "null", 
      "name": "mixed_4_tower_conv_2_batchnorm_beta", 
      "attrs": {"fix_gamma": "True"}, 
      "inputs": []
    }, 
    {
      "op": "null", 
      "name": "mixed_4_tower_conv_2_batchnorm_moving_mean", 
      "attrs": {
        "__init__": "[\"zero\", {}]", 
        "fix_gamma": "True"
      }, 
      "inputs": []
    }, 
    {
      "op": "null", 
      "name": "mixed_4_tower_conv_2_batchnorm_moving_var", 
      "attrs": {
        "__init__": "[\"one\", {}]", 
        "fix_gamma": "True"
      }, 
      "inputs": []
    }, 
    {
      "op": "BatchNorm", 
      "name": "mixed_4_tower_conv_2_batchnorm", 
      "attrs": {"fix_gamma": "True"}, 
      "inputs": [[276, 0, 0], [277, 0, 0], [278, 0, 0], [279, 0, 1], [280, 0, 1]]
    }, 
    {
      "op": "Activation", 
      "name": "mixed_4_tower_conv_2_relu", 
      "attrs": {"act_type": "relu"}, 
      "inputs": [[281, 0, 0]]
    }, 
    {
      "op": "null", 
      "name": "mixed_4_tower_1_conv_conv2d_weight", 
      "attrs": {
        "kernel": "(1, 1)", 
        "no_bias": "True", 
        "num_filter": "128", 
        "pad": "(0, 0)", 
        "stride": "(1, 1)"
      }, 
      "inputs": []
    }, 
    {
      "op": "Convolution", 
      "name": "mixed_4_tower_1_conv_conv2d", 
      "attrs": {
        "kernel": "(1, 1)", 
        "no_bias": "True", 
        "num_filter": "128", 
        "pad": "(0, 0)", 
        "stride": "(1, 1)"
      }, 
      "inputs": [[250, 0, 0], [283, 0, 0]]
    }, 
    {
      "op": "null", 
      "name": "mixed_4_tower_1_conv_batchnorm_gamma", 
      "attrs": {"fix_gamma": "True"}, 
      "inputs": []
    }, 
    {
      "op": "null", 
      "name": "mixed_4_tower_1_conv_batchnorm_beta", 
      "attrs": {"fix_gamma": "True"}, 
      "inputs": []
    }, 
    {
      "op": "null", 
      "name": "mixed_4_tower_1_conv_batchnorm_moving_mean", 
      "attrs": {
        "__init__": "[\"zero\", {}]", 
        "fix_gamma": "True"
      }, 
      "inputs": []
    }, 
    {
      "op": "null", 
      "name": "mixed_4_tower_1_conv_batchnorm_moving_var", 
      "attrs": {
        "__init__": "[\"one\", {}]", 
        "fix_gamma": "True"
      }, 
      "inputs": []
    }, 
    {
      "op": "BatchNorm", 
      "name": "mixed_4_tower_1_conv_batchnorm", 
      "attrs": {"fix_gamma": "True"}, 
      "inputs": [[284, 0, 0], [285, 0, 0], [286, 0, 0], [287, 0, 1], [288, 0, 1]]
    }, 
    {
      "op": "Activation", 
      "name": "mixed_4_tower_1_conv_relu", 
      "attrs": {"act_type": "relu"}, 
      "inputs": [[289, 0, 0]]
    }, 
    {
      "op": "null", 
      "name": "mixed_4_tower_1_conv_1_conv2d_weight", 
      "attrs": {
        "kernel": "(7, 1)", 
        "no_bias": "True", 
        "num_filter": "128", 
        "pad": "(3, 0)", 
        "stride": "(1, 1)"
      }, 
      "inputs": []
    }, 
    {
      "op": "Convolution", 
      "name": "mixed_4_tower_1_conv_1_conv2d", 
      "attrs": {
        "kernel": "(7, 1)", 
        "no_bias": "True", 
        "num_filter": "128", 
        "pad": "(3, 0)", 
        "stride": "(1, 1)"
      }, 
      "inputs": [[290, 0, 0], [291, 0, 0]]
    }, 
    {
      "op": "null", 
      "name": "mixed_4_tower_1_conv_1_batchnorm_gamma", 
      "attrs": {"fix_gamma": "True"}, 
      "inputs": []
    }, 
    {
      "op": "null", 
      "name": "mixed_4_tower_1_conv_1_batchnorm_beta", 
      "attrs": {"fix_gamma": "True"}, 
      "inputs": []
    }, 
    {
      "op": "null", 
      "name": "mixed_4_tower_1_conv_1_batchnorm_moving_mean", 
      "attrs": {
        "__init__": "[\"zero\", {}]", 
        "fix_gamma": "True"
      }, 
      "inputs": []
    }, 
    {
      "op": "null", 
      "name": "mixed_4_tower_1_conv_1_batchnorm_moving_var", 
      "attrs": {
        "__init__": "[\"one\", {}]", 
        "fix_gamma": "True"
      }, 
      "inputs": []
    }, 
    {
      "op": "BatchNorm", 
      "name": "mixed_4_tower_1_conv_1_batchnorm", 
      "attrs": {"fix_gamma": "True"}, 
      "inputs": [[292, 0, 0], [293, 0, 0], [294, 0, 0], [295, 0, 1], [296, 0, 1]]
    }, 
    {
      "op": "Activation", 
      "name": "mixed_4_tower_1_conv_1_relu", 
      "attrs": {"act_type": "relu"}, 
      "inputs": [[297, 0, 0]]
    }, 
    {
      "op": "null", 
      "name": "mixed_4_tower_1_conv_2_conv2d_weight", 
      "attrs": {
        "kernel": "(1, 7)", 
        "no_bias": "True", 
        "num_filter": "128", 
        "pad": "(0, 3)", 
        "stride": "(1, 1)"
      }, 
      "inputs": []
    }, 
    {
      "op": "Convolution", 
      "name": "mixed_4_tower_1_conv_2_conv2d", 
      "attrs": {
        "kernel": "(1, 7)", 
        "no_bias": "True", 
        "num_filter": "128", 
        "pad": "(0, 3)", 
        "stride": "(1, 1)"
      }, 
      "inputs": [[298, 0, 0], [299, 0, 0]]
    }, 
    {
      "op": "null", 
      "name": "mixed_4_tower_1_conv_2_batchnorm_gamma", 
      "attrs": {"fix_gamma": "True"}, 
      "inputs": []
    }, 
    {
      "op": "null", 
      "name": "mixed_4_tower_1_conv_2_batchnorm_beta", 
      "attrs": {"fix_gamma": "True"}, 
      "inputs": []
    }, 
    {
      "op": "null", 
      "name": "mixed_4_tower_1_conv_2_batchnorm_moving_mean", 
      "attrs": {
        "__init__": "[\"zero\", {}]", 
        "fix_gamma": "True"
      }, 
      "inputs": []
    }, 
    {
      "op": "null", 
      "name": "mixed_4_tower_1_conv_2_batchnorm_moving_var", 
      "attrs": {
        "__init__": "[\"one\", {}]", 
        "fix_gamma": "True"
      }, 
      "inputs": []
    }, 
    {
      "op": "BatchNorm", 
      "name": "mixed_4_tower_1_conv_2_batchnorm", 
      "attrs": {"fix_gamma": "True"}, 
      "inputs": [[300, 0, 0], [301, 0, 0], [302, 0, 0], [303, 0, 1], [304, 0, 1]]
    }, 
    {
      "op": "Activation", 
      "name": "mixed_4_tower_1_conv_2_relu", 
      "attrs": {"act_type": "relu"}, 
      "inputs": [[305, 0, 0]]
    }, 
    {
      "op": "null", 
      "name": "mixed_4_tower_1_conv_3_conv2d_weight", 
      "attrs": {
        "kernel": "(7, 1)", 
        "no_bias": "True", 
        "num_filter": "128", 
        "pad": "(3, 0)", 
        "stride": "(1, 1)"
      }, 
      "inputs": []
    }, 
    {
      "op": "Convolution", 
      "name": "mixed_4_tower_1_conv_3_conv2d", 
      "attrs": {
        "kernel": "(7, 1)", 
        "no_bias": "True", 
        "num_filter": "128", 
        "pad": "(3, 0)", 
        "stride": "(1, 1)"
      }, 
      "inputs": [[306, 0, 0], [307, 0, 0]]
    }, 
    {
      "op": "null", 
      "name": "mixed_4_tower_1_conv_3_batchnorm_gamma", 
      "attrs": {"fix_gamma": "True"}, 
      "inputs": []
    }, 
    {
      "op": "null", 
      "name": "mixed_4_tower_1_conv_3_batchnorm_beta", 
      "attrs": {"fix_gamma": "True"}, 
      "inputs": []
    }, 
    {
      "op": "null", 
      "name": "mixed_4_tower_1_conv_3_batchnorm_moving_mean", 
      "attrs": {
        "__init__": "[\"zero\", {}]", 
        "fix_gamma": "True"
      }, 
      "inputs": []
    }, 
    {
      "op": "null", 
      "name": "mixed_4_tower_1_conv_3_batchnorm_moving_var", 
      "attrs": {
        "__init__": "[\"one\", {}]", 
        "fix_gamma": "True"
      }, 
      "inputs": []
    }, 
    {
      "op": "BatchNorm", 
      "name": "mixed_4_tower_1_conv_3_batchnorm", 
      "attrs": {"fix_gamma": "True"}, 
      "inputs": [[308, 0, 0], [309, 0, 0], [310, 0, 0], [311, 0, 1], [312, 0, 1]]
    }, 
    {
      "op": "Activation", 
      "name": "mixed_4_tower_1_conv_3_relu", 
      "attrs": {"act_type": "relu"}, 
      "inputs": [[313, 0, 0]]
    }, 
    {
      "op": "null", 
      "name": "mixed_4_tower_1_conv_4_conv2d_weight", 
      "attrs": {
        "kernel": "(1, 7)", 
        "no_bias": "True", 
        "num_filter": "192", 
        "pad": "(0, 3)", 
        "stride": "(1, 1)"
      }, 
      "inputs": []
    }, 
    {
      "op": "Convolution", 
      "name": "mixed_4_tower_1_conv_4_conv2d", 
      "attrs": {
        "kernel": "(1, 7)", 
        "no_bias": "True", 
        "num_filter": "192", 
        "pad": "(0, 3)", 
        "stride": "(1, 1)"
      }, 
      "inputs": [[314, 0, 0], [315, 0, 0]]
    }, 
    {
      "op": "null", 
      "name": "mixed_4_tower_1_conv_4_batchnorm_gamma", 
      "attrs": {"fix_gamma": "True"}, 
      "inputs": []
    }, 
    {
      "op": "null", 
      "name": "mixed_4_tower_1_conv_4_batchnorm_beta", 
      "attrs": {"fix_gamma": "True"}, 
      "inputs": []
    }, 
    {
      "op": "null", 
      "name": "mixed_4_tower_1_conv_4_batchnorm_moving_mean", 
      "attrs": {
        "__init__": "[\"zero\", {}]", 
        "fix_gamma": "True"
      }, 
      "inputs": []
    }, 
    {
      "op": "null", 
      "name": "mixed_4_tower_1_conv_4_batchnorm_moving_var", 
      "attrs": {
        "__init__": "[\"one\", {}]", 
        "fix_gamma": "True"
      }, 
      "inputs": []
    }, 
    {
      "op": "BatchNorm", 
      "name": "mixed_4_tower_1_conv_4_batchnorm", 
      "attrs": {"fix_gamma": "True"}, 
      "inputs": [[316, 0, 0], [317, 0, 0], [318, 0, 0], [319, 0, 1], [320, 0, 1]]
    }, 
    {
      "op": "Activation", 
      "name": "mixed_4_tower_1_conv_4_relu", 
      "attrs": {"act_type": "relu"}, 
      "inputs": [[321, 0, 0]]
    }, 
    {
      "op": "Pooling", 
      "name": "avg_pool_mixed_4_pool", 
      "attrs": {
        "kernel": "(3, 3)", 
        "pad": "(1, 1)", 
        "pool_type": "avg", 
        "stride": "(1, 1)"
      }, 
      "inputs": [[250, 0, 0]]
    }, 
    {
      "op": "null", 
      "name": "mixed_4_tower_2_conv_conv2d_weight", 
      "attrs": {
        "kernel": "(1, 1)", 
        "no_bias": "True", 
        "num_filter": "192", 
        "pad": "(0, 0)", 
        "stride": "(1, 1)"
      }, 
      "inputs": []
    }, 
    {
      "op": "Convolution", 
      "name": "mixed_4_tower_2_conv_conv2d", 
      "attrs": {
        "kernel": "(1, 1)", 
        "no_bias": "True", 
        "num_filter": "192", 
        "pad": "(0, 0)", 
        "stride": "(1, 1)"
      }, 
      "inputs": [[323, 0, 0], [324, 0, 0]]
    }, 
    {
      "op": "null", 
      "name": "mixed_4_tower_2_conv_batchnorm_gamma", 
      "attrs": {"fix_gamma": "True"}, 
      "inputs": []
    }, 
    {
      "op": "null", 
      "name": "mixed_4_tower_2_conv_batchnorm_beta", 
      "attrs": {"fix_gamma": "True"}, 
      "inputs": []
    }, 
    {
      "op": "null", 
      "name": "mixed_4_tower_2_conv_batchnorm_moving_mean", 
      "attrs": {
        "__init__": "[\"zero\", {}]", 
        "fix_gamma": "True"
      }, 
      "inputs": []
    }, 
    {
      "op": "null", 
      "name": "mixed_4_tower_2_conv_batchnorm_moving_var", 
      "attrs": {
        "__init__": "[\"one\", {}]", 
        "fix_gamma": "True"
      }, 
      "inputs": []
    }, 
    {
      "op": "BatchNorm", 
      "name": "mixed_4_tower_2_conv_batchnorm", 
      "attrs": {"fix_gamma": "True"}, 
      "inputs": [[325, 0, 0], [326, 0, 0], [327, 0, 0], [328, 0, 1], [329, 0, 1]]
    }, 
    {
      "op": "Activation", 
      "name": "mixed_4_tower_2_conv_relu", 
      "attrs": {"act_type": "relu"}, 
      "inputs": [[330, 0, 0]]
    }, 
    {
      "op": "Concat", 
      "name": "ch_concat_mixed_4_chconcat", 
      "attrs": {"num_args": "4"}, 
      "inputs": [[258, 0, 0], [282, 0, 0], [322, 0, 0], [331, 0, 0]]
    }, 
    {
      "op": "null", 
      "name": "mixed_5_conv_conv2d_weight", 
      "attrs": {
        "kernel": "(1, 1)", 
        "no_bias": "True", 
        "num_filter": "192", 
        "pad": "(0, 0)", 
        "stride": "(1, 1)"
      }, 
      "inputs": []
    }, 
    {
      "op": "Convolution", 
      "name": "mixed_5_conv_conv2d", 
      "attrs": {
        "kernel": "(1, 1)", 
        "no_bias": "True", 
        "num_filter": "192", 
        "pad": "(0, 0)", 
        "stride": "(1, 1)"
      }, 
      "inputs": [[332, 0, 0], [333, 0, 0]]
    }, 
    {
      "op": "null", 
      "name": "mixed_5_conv_batchnorm_gamma", 
      "attrs": {"fix_gamma": "True"}, 
      "inputs": []
    }, 
    {
      "op": "null", 
      "name": "mixed_5_conv_batchnorm_beta", 
      "attrs": {"fix_gamma": "True"}, 
      "inputs": []
    }, 
    {
      "op": "null", 
      "name": "mixed_5_conv_batchnorm_moving_mean", 
      "attrs": {
        "__init__": "[\"zero\", {}]", 
        "fix_gamma": "True"
      }, 
      "inputs": []
    }, 
    {
      "op": "null", 
      "name": "mixed_5_conv_batchnorm_moving_var", 
      "attrs": {
        "__init__": "[\"one\", {}]", 
        "fix_gamma": "True"
      }, 
      "inputs": []
    }, 
    {
      "op": "BatchNorm", 
      "name": "mixed_5_conv_batchnorm", 
      "attrs": {"fix_gamma": "True"}, 
      "inputs": [[334, 0, 0], [335, 0, 0], [336, 0, 0], [337, 0, 1], [338, 0, 1]]
    }, 
    {
      "op": "Activation", 
      "name": "mixed_5_conv_relu", 
      "attrs": {"act_type": "relu"}, 
      "inputs": [[339, 0, 0]]
    }, 
    {
      "op": "null", 
      "name": "mixed_5_tower_conv_conv2d_weight", 
      "attrs": {
        "kernel": "(1, 1)", 
        "no_bias": "True", 
        "num_filter": "160", 
        "pad": "(0, 0)", 
        "stride": "(1, 1)"
      }, 
      "inputs": []
    }, 
    {
      "op": "Convolution", 
      "name": "mixed_5_tower_conv_conv2d", 
      "attrs": {
        "kernel": "(1, 1)", 
        "no_bias": "True", 
        "num_filter": "160", 
        "pad": "(0, 0)", 
        "stride": "(1, 1)"
      }, 
      "inputs": [[332, 0, 0], [341, 0, 0]]
    }, 
    {
      "op": "null", 
      "name": "mixed_5_tower_conv_batchnorm_gamma", 
      "attrs": {"fix_gamma": "True"}, 
      "inputs": []
    }, 
    {
      "op": "null", 
      "name": "mixed_5_tower_conv_batchnorm_beta", 
      "attrs": {"fix_gamma": "True"}, 
      "inputs": []
    }, 
    {
      "op": "null", 
      "name": "mixed_5_tower_conv_batchnorm_moving_mean", 
      "attrs": {
        "__init__": "[\"zero\", {}]", 
        "fix_gamma": "True"
      }, 
      "inputs": []
    }, 
    {
      "op": "null", 
      "name": "mixed_5_tower_conv_batchnorm_moving_var", 
      "attrs": {
        "__init__": "[\"one\", {}]", 
        "fix_gamma": "True"
      }, 
      "inputs": []
    }, 
    {
      "op": "BatchNorm", 
      "name": "mixed_5_tower_conv_batchnorm", 
      "attrs": {"fix_gamma": "True"}, 
      "inputs": [[342, 0, 0], [343, 0, 0], [344, 0, 0], [345, 0, 1], [346, 0, 1]]
    }, 
    {
      "op": "Activation", 
      "name": "mixed_5_tower_conv_relu", 
      "attrs": {"act_type": "relu"}, 
      "inputs": [[347, 0, 0]]
    }, 
    {
      "op": "null", 
      "name": "mixed_5_tower_conv_1_conv2d_weight", 
      "attrs": {
        "kernel": "(1, 7)", 
        "no_bias": "True", 
        "num_filter": "160", 
        "pad": "(0, 3)", 
        "stride": "(1, 1)"
      }, 
      "inputs": []
    }, 
    {
      "op": "Convolution", 
      "name": "mixed_5_tower_conv_1_conv2d", 
      "attrs": {
        "kernel": "(1, 7)", 
        "no_bias": "True", 
        "num_filter": "160", 
        "pad": "(0, 3)", 
        "stride": "(1, 1)"
      }, 
      "inputs": [[348, 0, 0], [349, 0, 0]]
    }, 
    {
      "op": "null", 
      "name": "mixed_5_tower_conv_1_batchnorm_gamma", 
      "attrs": {"fix_gamma": "True"}, 
      "inputs": []
    }, 
    {
      "op": "null", 
      "name": "mixed_5_tower_conv_1_batchnorm_beta", 
      "attrs": {"fix_gamma": "True"}, 
      "inputs": []
    }, 
    {
      "op": "null", 
      "name": "mixed_5_tower_conv_1_batchnorm_moving_mean", 
      "attrs": {
        "__init__": "[\"zero\", {}]", 
        "fix_gamma": "True"
      }, 
      "inputs": []
    }, 
    {
      "op": "null", 
      "name": "mixed_5_tower_conv_1_batchnorm_moving_var", 
      "attrs": {
        "__init__": "[\"one\", {}]", 
        "fix_gamma": "True"
      }, 
      "inputs": []
    }, 
    {
      "op": "BatchNorm", 
      "name": "mixed_5_tower_conv_1_batchnorm", 
      "attrs": {"fix_gamma": "True"}, 
      "inputs": [[350, 0, 0], [351, 0, 0], [352, 0, 0], [353, 0, 1], [354, 0, 1]]
    }, 
    {
      "op": "Activation", 
      "name": "mixed_5_tower_conv_1_relu", 
      "attrs": {"act_type": "relu"}, 
      "inputs": [[355, 0, 0]]
    }, 
    {
      "op": "null", 
      "name": "mixed_5_tower_conv_2_conv2d_weight", 
      "attrs": {
        "kernel": "(7, 1)", 
        "no_bias": "True", 
        "num_filter": "192", 
        "pad": "(3, 0)", 
        "stride": "(1, 1)"
      }, 
      "inputs": []
    }, 
    {
      "op": "Convolution", 
      "name": "mixed_5_tower_conv_2_conv2d", 
      "attrs": {
        "kernel": "(7, 1)", 
        "no_bias": "True", 
        "num_filter": "192", 
        "pad": "(3, 0)", 
        "stride": "(1, 1)"
      }, 
      "inputs": [[356, 0, 0], [357, 0, 0]]
    }, 
    {
      "op": "null", 
      "name": "mixed_5_tower_conv_2_batchnorm_gamma", 
      "attrs": {"fix_gamma": "True"}, 
      "inputs": []
    }, 
    {
      "op": "null", 
      "name": "mixed_5_tower_conv_2_batchnorm_beta", 
      "attrs": {"fix_gamma": "True"}, 
      "inputs": []
    }, 
    {
      "op": "null", 
      "name": "mixed_5_tower_conv_2_batchnorm_moving_mean", 
      "attrs": {
        "__init__": "[\"zero\", {}]", 
        "fix_gamma": "True"
      }, 
      "inputs": []
    }, 
    {
      "op": "null", 
      "name": "mixed_5_tower_conv_2_batchnorm_moving_var", 
      "attrs": {
        "__init__": "[\"one\", {}]", 
        "fix_gamma": "True"
      }, 
      "inputs": []
    }, 
    {
      "op": "BatchNorm", 
      "name": "mixed_5_tower_conv_2_batchnorm", 
      "attrs": {"fix_gamma": "True"}, 
      "inputs": [[358, 0, 0], [359, 0, 0], [360, 0, 0], [361, 0, 1], [362, 0, 1]]
    }, 
    {
      "op": "Activation", 
      "name": "mixed_5_tower_conv_2_relu", 
      "attrs": {"act_type": "relu"}, 
      "inputs": [[363, 0, 0]]
    }, 
    {
      "op": "null", 
      "name": "mixed_5_tower_1_conv_conv2d_weight", 
      "attrs": {
        "kernel": "(1, 1)", 
        "no_bias": "True", 
        "num_filter": "160", 
        "pad": "(0, 0)", 
        "stride": "(1, 1)"
      }, 
      "inputs": []
    }, 
    {
      "op": "Convolution", 
      "name": "mixed_5_tower_1_conv_conv2d", 
      "attrs": {
        "kernel": "(1, 1)", 
        "no_bias": "True", 
        "num_filter": "160", 
        "pad": "(0, 0)", 
        "stride": "(1, 1)"
      }, 
      "inputs": [[332, 0, 0], [365, 0, 0]]
    }, 
    {
      "op": "null", 
      "name": "mixed_5_tower_1_conv_batchnorm_gamma", 
      "attrs": {"fix_gamma": "True"}, 
      "inputs": []
    }, 
    {
      "op": "null", 
      "name": "mixed_5_tower_1_conv_batchnorm_beta", 
      "attrs": {"fix_gamma": "True"}, 
      "inputs": []
    }, 
    {
      "op": "null", 
      "name": "mixed_5_tower_1_conv_batchnorm_moving_mean", 
      "attrs": {
        "__init__": "[\"zero\", {}]", 
        "fix_gamma": "True"
      }, 
      "inputs": []
    }, 
    {
      "op": "null", 
      "name": "mixed_5_tower_1_conv_batchnorm_moving_var", 
      "attrs": {
        "__init__": "[\"one\", {}]", 
        "fix_gamma": "True"
      }, 
      "inputs": []
    }, 
    {
      "op": "BatchNorm", 
      "name": "mixed_5_tower_1_conv_batchnorm", 
      "attrs": {"fix_gamma": "True"}, 
      "inputs": [[366, 0, 0], [367, 0, 0], [368, 0, 0], [369, 0, 1], [370, 0, 1]]
    }, 
    {
      "op": "Activation", 
      "name": "mixed_5_tower_1_conv_relu", 
      "attrs": {"act_type": "relu"}, 
      "inputs": [[371, 0, 0]]
    }, 
    {
      "op": "null", 
      "name": "mixed_5_tower_1_conv_1_conv2d_weight", 
      "attrs": {
        "kernel": "(7, 1)", 
        "no_bias": "True", 
        "num_filter": "160", 
        "pad": "(3, 0)", 
        "stride": "(1, 1)"
      }, 
      "inputs": []
    }, 
    {
      "op": "Convolution", 
      "name": "mixed_5_tower_1_conv_1_conv2d", 
      "attrs": {
        "kernel": "(7, 1)", 
        "no_bias": "True", 
        "num_filter": "160", 
        "pad": "(3, 0)", 
        "stride": "(1, 1)"
      }, 
      "inputs": [[372, 0, 0], [373, 0, 0]]
    }, 
    {
      "op": "null", 
      "name": "mixed_5_tower_1_conv_1_batchnorm_gamma", 
      "attrs": {"fix_gamma": "True"}, 
      "inputs": []
    }, 
    {
      "op": "null", 
      "name": "mixed_5_tower_1_conv_1_batchnorm_beta", 
      "attrs": {"fix_gamma": "True"}, 
      "inputs": []
    }, 
    {
      "op": "null", 
      "name": "mixed_5_tower_1_conv_1_batchnorm_moving_mean", 
      "attrs": {
        "__init__": "[\"zero\", {}]", 
        "fix_gamma": "True"
      }, 
      "inputs": []
    }, 
    {
      "op": "null", 
      "name": "mixed_5_tower_1_conv_1_batchnorm_moving_var", 
      "attrs": {
        "__init__": "[\"one\", {}]", 
        "fix_gamma": "True"
      }, 
      "inputs": []
    }, 
    {
      "op": "BatchNorm", 
      "name": "mixed_5_tower_1_conv_1_batchnorm", 
      "attrs": {"fix_gamma": "True"}, 
      "inputs": [[374, 0, 0], [375, 0, 0], [376, 0, 0], [377, 0, 1], [378, 0, 1]]
    }, 
    {
      "op": "Activation", 
      "name": "mixed_5_tower_1_conv_1_relu", 
      "attrs": {"act_type": "relu"}, 
      "inputs": [[379, 0, 0]]
    }, 
    {
      "op": "null", 
      "name": "mixed_5_tower_1_conv_2_conv2d_weight", 
      "attrs": {
        "kernel": "(1, 7)", 
        "no_bias": "True", 
        "num_filter": "160", 
        "pad": "(0, 3)", 
        "stride": "(1, 1)"
      }, 
      "inputs": []
    }, 
    {
      "op": "Convolution", 
      "name": "mixed_5_tower_1_conv_2_conv2d", 
      "attrs": {
        "kernel": "(1, 7)", 
        "no_bias": "True", 
        "num_filter": "160", 
        "pad": "(0, 3)", 
        "stride": "(1, 1)"
      }, 
      "inputs": [[380, 0, 0], [381, 0, 0]]
    }, 
    {
      "op": "null", 
      "name": "mixed_5_tower_1_conv_2_batchnorm_gamma", 
      "attrs": {"fix_gamma": "True"}, 
      "inputs": []
    }, 
    {
      "op": "null", 
      "name": "mixed_5_tower_1_conv_2_batchnorm_beta", 
      "attrs": {"fix_gamma": "True"}, 
      "inputs": []
    }, 
    {
      "op": "null", 
      "name": "mixed_5_tower_1_conv_2_batchnorm_moving_mean", 
      "attrs": {
        "__init__": "[\"zero\", {}]", 
        "fix_gamma": "True"
      }, 
      "inputs": []
    }, 
    {
      "op": "null", 
      "name": "mixed_5_tower_1_conv_2_batchnorm_moving_var", 
      "attrs": {
        "__init__": "[\"one\", {}]", 
        "fix_gamma": "True"
      }, 
      "inputs": []
    }, 
    {
      "op": "BatchNorm", 
      "name": "mixed_5_tower_1_conv_2_batchnorm", 
      "attrs": {"fix_gamma": "True"}, 
      "inputs": [[382, 0, 0], [383, 0, 0], [384, 0, 0], [385, 0, 1], [386, 0, 1]]
    }, 
    {
      "op": "Activation", 
      "name": "mixed_5_tower_1_conv_2_relu", 
      "attrs": {"act_type": "relu"}, 
      "inputs": [[387, 0, 0]]
    }, 
    {
      "op": "null", 
      "name": "mixed_5_tower_1_conv_3_conv2d_weight", 
      "attrs": {
        "kernel": "(7, 1)", 
        "no_bias": "True", 
        "num_filter": "160", 
        "pad": "(3, 0)", 
        "stride": "(1, 1)"
      }, 
      "inputs": []
    }, 
    {
      "op": "Convolution", 
      "name": "mixed_5_tower_1_conv_3_conv2d", 
      "attrs": {
        "kernel": "(7, 1)", 
        "no_bias": "True", 
        "num_filter": "160", 
        "pad": "(3, 0)", 
        "stride": "(1, 1)"
      }, 
      "inputs": [[388, 0, 0], [389, 0, 0]]
    }, 
    {
      "op": "null", 
      "name": "mixed_5_tower_1_conv_3_batchnorm_gamma", 
      "attrs": {"fix_gamma": "True"}, 
      "inputs": []
    }, 
    {
      "op": "null", 
      "name": "mixed_5_tower_1_conv_3_batchnorm_beta", 
      "attrs": {"fix_gamma": "True"}, 
      "inputs": []
    }, 
    {
      "op": "null", 
      "name": "mixed_5_tower_1_conv_3_batchnorm_moving_mean", 
      "attrs": {
        "__init__": "[\"zero\", {}]", 
        "fix_gamma": "True"
      }, 
      "inputs": []
    }, 
    {
      "op": "null", 
      "name": "mixed_5_tower_1_conv_3_batchnorm_moving_var", 
      "attrs": {
        "__init__": "[\"one\", {}]", 
        "fix_gamma": "True"
      }, 
      "inputs": []
    }, 
    {
      "op": "BatchNorm", 
      "name": "mixed_5_tower_1_conv_3_batchnorm", 
      "attrs": {"fix_gamma": "True"}, 
      "inputs": [[390, 0, 0], [391, 0, 0], [392, 0, 0], [393, 0, 1], [394, 0, 1]]
    }, 
    {
      "op": "Activation", 
      "name": "mixed_5_tower_1_conv_3_relu", 
      "attrs": {"act_type": "relu"}, 
      "inputs": [[395, 0, 0]]
    }, 
    {
      "op": "null", 
      "name": "mixed_5_tower_1_conv_4_conv2d_weight", 
      "attrs": {
        "kernel": "(1, 7)", 
        "no_bias": "True", 
        "num_filter": "192", 
        "pad": "(0, 3)", 
        "stride": "(1, 1)"
      }, 
      "inputs": []
    }, 
    {
      "op": "Convolution", 
      "name": "mixed_5_tower_1_conv_4_conv2d", 
      "attrs": {
        "kernel": "(1, 7)", 
        "no_bias": "True", 
        "num_filter": "192", 
        "pad": "(0, 3)", 
        "stride": "(1, 1)"
      }, 
      "inputs": [[396, 0, 0], [397, 0, 0]]
    }, 
    {
      "op": "null", 
      "name": "mixed_5_tower_1_conv_4_batchnorm_gamma", 
      "attrs": {"fix_gamma": "True"}, 
      "inputs": []
    }, 
    {
      "op": "null", 
      "name": "mixed_5_tower_1_conv_4_batchnorm_beta", 
      "attrs": {"fix_gamma": "True"}, 
      "inputs": []
    }, 
    {
      "op": "null", 
      "name": "mixed_5_tower_1_conv_4_batchnorm_moving_mean", 
      "attrs": {
        "__init__": "[\"zero\", {}]", 
        "fix_gamma": "True"
      }, 
      "inputs": []
    }, 
    {
      "op": "null", 
      "name": "mixed_5_tower_1_conv_4_batchnorm_moving_var", 
      "attrs": {
        "__init__": "[\"one\", {}]", 
        "fix_gamma": "True"
      }, 
      "inputs": []
    }, 
    {
      "op": "BatchNorm", 
      "name": "mixed_5_tower_1_conv_4_batchnorm", 
      "attrs": {"fix_gamma": "True"}, 
      "inputs": [[398, 0, 0], [399, 0, 0], [400, 0, 0], [401, 0, 1], [402, 0, 1]]
    }, 
    {
      "op": "Activation", 
      "name": "mixed_5_tower_1_conv_4_relu", 
      "attrs": {"act_type": "relu"}, 
      "inputs": [[403, 0, 0]]
    }, 
    {
      "op": "Pooling", 
      "name": "avg_pool_mixed_5_pool", 
      "attrs": {
        "kernel": "(3, 3)", 
        "pad": "(1, 1)", 
        "pool_type": "avg", 
        "stride": "(1, 1)"
      }, 
      "inputs": [[332, 0, 0]]
    }, 
    {
      "op": "null", 
      "name": "mixed_5_tower_2_conv_conv2d_weight", 
      "attrs": {
        "kernel": "(1, 1)", 
        "no_bias": "True", 
        "num_filter": "192", 
        "pad": "(0, 0)", 
        "stride": "(1, 1)"
      }, 
      "inputs": []
    }, 
    {
      "op": "Convolution", 
      "name": "mixed_5_tower_2_conv_conv2d", 
      "attrs": {
        "kernel": "(1, 1)", 
        "no_bias": "True", 
        "num_filter": "192", 
        "pad": "(0, 0)", 
        "stride": "(1, 1)"
      }, 
      "inputs": [[405, 0, 0], [406, 0, 0]]
    }, 
    {
      "op": "null", 
      "name": "mixed_5_tower_2_conv_batchnorm_gamma", 
      "attrs": {"fix_gamma": "True"}, 
      "inputs": []
    }, 
    {
      "op": "null", 
      "name": "mixed_5_tower_2_conv_batchnorm_beta", 
      "attrs": {"fix_gamma": "True"}, 
      "inputs": []
    }, 
    {
      "op": "null", 
      "name": "mixed_5_tower_2_conv_batchnorm_moving_mean", 
      "attrs": {
        "__init__": "[\"zero\", {}]", 
        "fix_gamma": "True"
      }, 
      "inputs": []
    }, 
    {
      "op": "null", 
      "name": "mixed_5_tower_2_conv_batchnorm_moving_var", 
      "attrs": {
        "__init__": "[\"one\", {}]", 
        "fix_gamma": "True"
      }, 
      "inputs": []
    }, 
    {
      "op": "BatchNorm", 
      "name": "mixed_5_tower_2_conv_batchnorm", 
      "attrs": {"fix_gamma": "True"}, 
      "inputs": [[407, 0, 0], [408, 0, 0], [409, 0, 0], [410, 0, 1], [411, 0, 1]]
    }, 
    {
      "op": "Activation", 
      "name": "mixed_5_tower_2_conv_relu", 
      "attrs": {"act_type": "relu"}, 
      "inputs": [[412, 0, 0]]
    }, 
    {
      "op": "Concat", 
      "name": "ch_concat_mixed_5_chconcat", 
      "attrs": {"num_args": "4"}, 
      "inputs": [[340, 0, 0], [364, 0, 0], [404, 0, 0], [413, 0, 0]]
    }, 
    {
      "op": "null", 
      "name": "mixed_6_conv_conv2d_weight", 
      "attrs": {
        "kernel": "(1, 1)", 
        "no_bias": "True", 
        "num_filter": "192", 
        "pad": "(0, 0)", 
        "stride": "(1, 1)"
      }, 
      "inputs": []
    }, 
    {
      "op": "Convolution", 
      "name": "mixed_6_conv_conv2d", 
      "attrs": {
        "kernel": "(1, 1)", 
        "no_bias": "True", 
        "num_filter": "192", 
        "pad": "(0, 0)", 
        "stride": "(1, 1)"
      }, 
      "inputs": [[414, 0, 0], [415, 0, 0]]
    }, 
    {
      "op": "null", 
      "name": "mixed_6_conv_batchnorm_gamma", 
      "attrs": {"fix_gamma": "True"}, 
      "inputs": []
    }, 
    {
      "op": "null", 
      "name": "mixed_6_conv_batchnorm_beta", 
      "attrs": {"fix_gamma": "True"}, 
      "inputs": []
    }, 
    {
      "op": "null", 
      "name": "mixed_6_conv_batchnorm_moving_mean", 
      "attrs": {
        "__init__": "[\"zero\", {}]", 
        "fix_gamma": "True"
      }, 
      "inputs": []
    }, 
    {
      "op": "null", 
      "name": "mixed_6_conv_batchnorm_moving_var", 
      "attrs": {
        "__init__": "[\"one\", {}]", 
        "fix_gamma": "True"
      }, 
      "inputs": []
    }, 
    {
      "op": "BatchNorm", 
      "name": "mixed_6_conv_batchnorm", 
      "attrs": {"fix_gamma": "True"}, 
      "inputs": [[416, 0, 0], [417, 0, 0], [418, 0, 0], [419, 0, 1], [420, 0, 1]]
    }, 
    {
      "op": "Activation", 
      "name": "mixed_6_conv_relu", 
      "attrs": {"act_type": "relu"}, 
      "inputs": [[421, 0, 0]]
    }, 
    {
      "op": "null", 
      "name": "mixed_6_tower_conv_conv2d_weight", 
      "attrs": {
        "kernel": "(1, 1)", 
        "no_bias": "True", 
        "num_filter": "160", 
        "pad": "(0, 0)", 
        "stride": "(1, 1)"
      }, 
      "inputs": []
    }, 
    {
      "op": "Convolution", 
      "name": "mixed_6_tower_conv_conv2d", 
      "attrs": {
        "kernel": "(1, 1)", 
        "no_bias": "True", 
        "num_filter": "160", 
        "pad": "(0, 0)", 
        "stride": "(1, 1)"
      }, 
      "inputs": [[414, 0, 0], [423, 0, 0]]
    }, 
    {
      "op": "null", 
      "name": "mixed_6_tower_conv_batchnorm_gamma", 
      "attrs": {"fix_gamma": "True"}, 
      "inputs": []
    }, 
    {
      "op": "null", 
      "name": "mixed_6_tower_conv_batchnorm_beta", 
      "attrs": {"fix_gamma": "True"}, 
      "inputs": []
    }, 
    {
      "op": "null", 
      "name": "mixed_6_tower_conv_batchnorm_moving_mean", 
      "attrs": {
        "__init__": "[\"zero\", {}]", 
        "fix_gamma": "True"
      }, 
      "inputs": []
    }, 
    {
      "op": "null", 
      "name": "mixed_6_tower_conv_batchnorm_moving_var", 
      "attrs": {
        "__init__": "[\"one\", {}]", 
        "fix_gamma": "True"
      }, 
      "inputs": []
    }, 
    {
      "op": "BatchNorm", 
      "name": "mixed_6_tower_conv_batchnorm", 
      "attrs": {"fix_gamma": "True"}, 
      "inputs": [[424, 0, 0], [425, 0, 0], [426, 0, 0], [427, 0, 1], [428, 0, 1]]
    }, 
    {
      "op": "Activation", 
      "name": "mixed_6_tower_conv_relu", 
      "attrs": {"act_type": "relu"}, 
      "inputs": [[429, 0, 0]]
    }, 
    {
      "op": "null", 
      "name": "mixed_6_tower_conv_1_conv2d_weight", 
      "attrs": {
        "kernel": "(1, 7)", 
        "no_bias": "True", 
        "num_filter": "160", 
        "pad": "(0, 3)", 
        "stride": "(1, 1)"
      }, 
      "inputs": []
    }, 
    {
      "op": "Convolution", 
      "name": "mixed_6_tower_conv_1_conv2d", 
      "attrs": {
        "kernel": "(1, 7)", 
        "no_bias": "True", 
        "num_filter": "160", 
        "pad": "(0, 3)", 
        "stride": "(1, 1)"
      }, 
      "inputs": [[430, 0, 0], [431, 0, 0]]
    }, 
    {
      "op": "null", 
      "name": "mixed_6_tower_conv_1_batchnorm_gamma", 
      "attrs": {"fix_gamma": "True"}, 
      "inputs": []
    }, 
    {
      "op": "null", 
      "name": "mixed_6_tower_conv_1_batchnorm_beta", 
      "attrs": {"fix_gamma": "True"}, 
      "inputs": []
    }, 
    {
      "op": "null", 
      "name": "mixed_6_tower_conv_1_batchnorm_moving_mean", 
      "attrs": {
        "__init__": "[\"zero\", {}]", 
        "fix_gamma": "True"
      }, 
      "inputs": []
    }, 
    {
      "op": "null", 
      "name": "mixed_6_tower_conv_1_batchnorm_moving_var", 
      "attrs": {
        "__init__": "[\"one\", {}]", 
        "fix_gamma": "True"
      }, 
      "inputs": []
    }, 
    {
      "op": "BatchNorm", 
      "name": "mixed_6_tower_conv_1_batchnorm", 
      "attrs": {"fix_gamma": "True"}, 
      "inputs": [[432, 0, 0], [433, 0, 0], [434, 0, 0], [435, 0, 1], [436, 0, 1]]
    }, 
    {
      "op": "Activation", 
      "name": "mixed_6_tower_conv_1_relu", 
      "attrs": {"act_type": "relu"}, 
      "inputs": [[437, 0, 0]]
    }, 
    {
      "op": "null", 
      "name": "mixed_6_tower_conv_2_conv2d_weight", 
      "attrs": {
        "kernel": "(7, 1)", 
        "no_bias": "True", 
        "num_filter": "192", 
        "pad": "(3, 0)", 
        "stride": "(1, 1)"
      }, 
      "inputs": []
    }, 
    {
      "op": "Convolution", 
      "name": "mixed_6_tower_conv_2_conv2d", 
      "attrs": {
        "kernel": "(7, 1)", 
        "no_bias": "True", 
        "num_filter": "192", 
        "pad": "(3, 0)", 
        "stride": "(1, 1)"
      }, 
      "inputs": [[438, 0, 0], [439, 0, 0]]
    }, 
    {
      "op": "null", 
      "name": "mixed_6_tower_conv_2_batchnorm_gamma", 
      "attrs": {"fix_gamma": "True"}, 
      "inputs": []
    }, 
    {
      "op": "null", 
      "name": "mixed_6_tower_conv_2_batchnorm_beta", 
      "attrs": {"fix_gamma": "True"}, 
      "inputs": []
    }, 
    {
      "op": "null", 
      "name": "mixed_6_tower_conv_2_batchnorm_moving_mean", 
      "attrs": {
        "__init__": "[\"zero\", {}]", 
        "fix_gamma": "True"
      }, 
      "inputs": []
    }, 
    {
      "op": "null", 
      "name": "mixed_6_tower_conv_2_batchnorm_moving_var", 
      "attrs": {
        "__init__": "[\"one\", {}]", 
        "fix_gamma": "True"
      }, 
      "inputs": []
    }, 
    {
      "op": "BatchNorm", 
      "name": "mixed_6_tower_conv_2_batchnorm", 
      "attrs": {"fix_gamma": "True"}, 
      "inputs": [[440, 0, 0], [441, 0, 0], [442, 0, 0], [443, 0, 1], [444, 0, 1]]
    }, 
    {
      "op": "Activation", 
      "name": "mixed_6_tower_conv_2_relu", 
      "attrs": {"act_type": "relu"}, 
      "inputs": [[445, 0, 0]]
    }, 
    {
      "op": "null", 
      "name": "mixed_6_tower_1_conv_conv2d_weight", 
      "attrs": {
        "kernel": "(1, 1)", 
        "no_bias": "True", 
        "num_filter": "160", 
        "pad": "(0, 0)", 
        "stride": "(1, 1)"
      }, 
      "inputs": []
    }, 
    {
      "op": "Convolution", 
      "name": "mixed_6_tower_1_conv_conv2d", 
      "attrs": {
        "kernel": "(1, 1)", 
        "no_bias": "True", 
        "num_filter": "160", 
        "pad": "(0, 0)", 
        "stride": "(1, 1)"
      }, 
      "inputs": [[414, 0, 0], [447, 0, 0]]
    }, 
    {
      "op": "null", 
      "name": "mixed_6_tower_1_conv_batchnorm_gamma", 
      "attrs": {"fix_gamma": "True"}, 
      "inputs": []
    }, 
    {
      "op": "null", 
      "name": "mixed_6_tower_1_conv_batchnorm_beta", 
      "attrs": {"fix_gamma": "True"}, 
      "inputs": []
    }, 
    {
      "op": "null", 
      "name": "mixed_6_tower_1_conv_batchnorm_moving_mean", 
      "attrs": {
        "__init__": "[\"zero\", {}]", 
        "fix_gamma": "True"
      }, 
      "inputs": []
    }, 
    {
      "op": "null", 
      "name": "mixed_6_tower_1_conv_batchnorm_moving_var", 
      "attrs": {
        "__init__": "[\"one\", {}]", 
        "fix_gamma": "True"
      }, 
      "inputs": []
    }, 
    {
      "op": "BatchNorm", 
      "name": "mixed_6_tower_1_conv_batchnorm", 
      "attrs": {"fix_gamma": "True"}, 
      "inputs": [[448, 0, 0], [449, 0, 0], [450, 0, 0], [451, 0, 1], [452, 0, 1]]
    }, 
    {
      "op": "Activation", 
      "name": "mixed_6_tower_1_conv_relu", 
      "attrs": {"act_type": "relu"}, 
      "inputs": [[453, 0, 0]]
    }, 
    {
      "op": "null", 
      "name": "mixed_6_tower_1_conv_1_conv2d_weight", 
      "attrs": {
        "kernel": "(7, 1)", 
        "no_bias": "True", 
        "num_filter": "160", 
        "pad": "(3, 0)", 
        "stride": "(1, 1)"
      }, 
      "inputs": []
    }, 
    {
      "op": "Convolution", 
      "name": "mixed_6_tower_1_conv_1_conv2d", 
      "attrs": {
        "kernel": "(7, 1)", 
        "no_bias": "True", 
        "num_filter": "160", 
        "pad": "(3, 0)", 
        "stride": "(1, 1)"
      }, 
      "inputs": [[454, 0, 0], [455, 0, 0]]
    }, 
    {
      "op": "null", 
      "name": "mixed_6_tower_1_conv_1_batchnorm_gamma", 
      "attrs": {"fix_gamma": "True"}, 
      "inputs": []
    }, 
    {
      "op": "null", 
      "name": "mixed_6_tower_1_conv_1_batchnorm_beta", 
      "attrs": {"fix_gamma": "True"}, 
      "inputs": []
    }, 
    {
      "op": "null", 
      "name": "mixed_6_tower_1_conv_1_batchnorm_moving_mean", 
      "attrs": {
        "__init__": "[\"zero\", {}]", 
        "fix_gamma": "True"
      }, 
      "inputs": []
    }, 
    {
      "op": "null", 
      "name": "mixed_6_tower_1_conv_1_batchnorm_moving_var", 
      "attrs": {
        "__init__": "[\"one\", {}]", 
        "fix_gamma": "True"
      }, 
      "inputs": []
    }, 
    {
      "op": "BatchNorm", 
      "name": "mixed_6_tower_1_conv_1_batchnorm", 
      "attrs": {"fix_gamma": "True"}, 
      "inputs": [[456, 0, 0], [457, 0, 0], [458, 0, 0], [459, 0, 1], [460, 0, 1]]
    }, 
    {
      "op": "Activation", 
      "name": "mixed_6_tower_1_conv_1_relu", 
      "attrs": {"act_type": "relu"}, 
      "inputs": [[461, 0, 0]]
    }, 
    {
      "op": "null", 
      "name": "mixed_6_tower_1_conv_2_conv2d_weight", 
      "attrs": {
        "kernel": "(1, 7)", 
        "no_bias": "True", 
        "num_filter": "160", 
        "pad": "(0, 3)", 
        "stride": "(1, 1)"
      }, 
      "inputs": []
    }, 
    {
      "op": "Convolution", 
      "name": "mixed_6_tower_1_conv_2_conv2d", 
      "attrs": {
        "kernel": "(1, 7)", 
        "no_bias": "True", 
        "num_filter": "160", 
        "pad": "(0, 3)", 
        "stride": "(1, 1)"
      }, 
      "inputs": [[462, 0, 0], [463, 0, 0]]
    }, 
    {
      "op": "null", 
      "name": "mixed_6_tower_1_conv_2_batchnorm_gamma", 
      "attrs": {"fix_gamma": "True"}, 
      "inputs": []
    }, 
    {
      "op": "null", 
      "name": "mixed_6_tower_1_conv_2_batchnorm_beta", 
      "attrs": {"fix_gamma": "True"}, 
      "inputs": []
    }, 
    {
      "op": "null", 
      "name": "mixed_6_tower_1_conv_2_batchnorm_moving_mean", 
      "attrs": {
        "__init__": "[\"zero\", {}]", 
        "fix_gamma": "True"
      }, 
      "inputs": []
    }, 
    {
      "op": "null", 
      "name": "mixed_6_tower_1_conv_2_batchnorm_moving_var", 
      "attrs": {
        "__init__": "[\"one\", {}]", 
        "fix_gamma": "True"
      }, 
      "inputs": []
    }, 
    {
      "op": "BatchNorm", 
      "name": "mixed_6_tower_1_conv_2_batchnorm", 
      "attrs": {"fix_gamma": "True"}, 
      "inputs": [[464, 0, 0], [465, 0, 0], [466, 0, 0], [467, 0, 1], [468, 0, 1]]
    }, 
    {
      "op": "Activation", 
      "name": "mixed_6_tower_1_conv_2_relu", 
      "attrs": {"act_type": "relu"}, 
      "inputs": [[469, 0, 0]]
    }, 
    {
      "op": "null", 
      "name": "mixed_6_tower_1_conv_3_conv2d_weight", 
      "attrs": {
        "kernel": "(7, 1)", 
        "no_bias": "True", 
        "num_filter": "160", 
        "pad": "(3, 0)", 
        "stride": "(1, 1)"
      }, 
      "inputs": []
    }, 
    {
      "op": "Convolution", 
      "name": "mixed_6_tower_1_conv_3_conv2d", 
      "attrs": {
        "kernel": "(7, 1)", 
        "no_bias": "True", 
        "num_filter": "160", 
        "pad": "(3, 0)", 
        "stride": "(1, 1)"
      }, 
      "inputs": [[470, 0, 0], [471, 0, 0]]
    }, 
    {
      "op": "null", 
      "name": "mixed_6_tower_1_conv_3_batchnorm_gamma", 
      "attrs": {"fix_gamma": "True"}, 
      "inputs": []
    }, 
    {
      "op": "null", 
      "name": "mixed_6_tower_1_conv_3_batchnorm_beta", 
      "attrs": {"fix_gamma": "True"}, 
      "inputs": []
    }, 
    {
      "op": "null", 
      "name": "mixed_6_tower_1_conv_3_batchnorm_moving_mean", 
      "attrs": {
        "__init__": "[\"zero\", {}]", 
        "fix_gamma": "True"
      }, 
      "inputs": []
    }, 
    {
      "op": "null", 
      "name": "mixed_6_tower_1_conv_3_batchnorm_moving_var", 
      "attrs": {
        "__init__": "[\"one\", {}]", 
        "fix_gamma": "True"
      }, 
      "inputs": []
    }, 
    {
      "op": "BatchNorm", 
      "name": "mixed_6_tower_1_conv_3_batchnorm", 
      "attrs": {"fix_gamma": "True"}, 
      "inputs": [[472, 0, 0], [473, 0, 0], [474, 0, 0], [475, 0, 1], [476, 0, 1]]
    }, 
    {
      "op": "Activation", 
      "name": "mixed_6_tower_1_conv_3_relu", 
      "attrs": {"act_type": "relu"}, 
      "inputs": [[477, 0, 0]]
    }, 
    {
      "op": "null", 
      "name": "mixed_6_tower_1_conv_4_conv2d_weight", 
      "attrs": {
        "kernel": "(1, 7)", 
        "no_bias": "True", 
        "num_filter": "192", 
        "pad": "(0, 3)", 
        "stride": "(1, 1)"
      }, 
      "inputs": []
    }, 
    {
      "op": "Convolution", 
      "name": "mixed_6_tower_1_conv_4_conv2d", 
      "attrs": {
        "kernel": "(1, 7)", 
        "no_bias": "True", 
        "num_filter": "192", 
        "pad": "(0, 3)", 
        "stride": "(1, 1)"
      }, 
      "inputs": [[478, 0, 0], [479, 0, 0]]
    }, 
    {
      "op": "null", 
      "name": "mixed_6_tower_1_conv_4_batchnorm_gamma", 
      "attrs": {"fix_gamma": "True"}, 
      "inputs": []
    }, 
    {
      "op": "null", 
      "name": "mixed_6_tower_1_conv_4_batchnorm_beta", 
      "attrs": {"fix_gamma": "True"}, 
      "inputs": []
    }, 
    {
      "op": "null", 
      "name": "mixed_6_tower_1_conv_4_batchnorm_moving_mean", 
      "attrs": {
        "__init__": "[\"zero\", {}]", 
        "fix_gamma": "True"
      }, 
      "inputs": []
    }, 
    {
      "op": "null", 
      "name": "mixed_6_tower_1_conv_4_batchnorm_moving_var", 
      "attrs": {
        "__init__": "[\"one\", {}]", 
        "fix_gamma": "True"
      }, 
      "inputs": []
    }, 
    {
      "op": "BatchNorm", 
      "name": "mixed_6_tower_1_conv_4_batchnorm", 
      "attrs": {"fix_gamma": "True"}, 
      "inputs": [[480, 0, 0], [481, 0, 0], [482, 0, 0], [483, 0, 1], [484, 0, 1]]
    }, 
    {
      "op": "Activation", 
      "name": "mixed_6_tower_1_conv_4_relu", 
      "attrs": {"act_type": "relu"}, 
      "inputs": [[485, 0, 0]]
    }, 
    {
      "op": "Pooling", 
      "name": "avg_pool_mixed_6_pool", 
      "attrs": {
        "kernel": "(3, 3)", 
        "pad": "(1, 1)", 
        "pool_type": "avg", 
        "stride": "(1, 1)"
      }, 
      "inputs": [[414, 0, 0]]
    }, 
    {
      "op": "null", 
      "name": "mixed_6_tower_2_conv_conv2d_weight", 
      "attrs": {
        "kernel": "(1, 1)", 
        "no_bias": "True", 
        "num_filter": "192", 
        "pad": "(0, 0)", 
        "stride": "(1, 1)"
      }, 
      "inputs": []
    }, 
    {
      "op": "Convolution", 
      "name": "mixed_6_tower_2_conv_conv2d", 
      "attrs": {
        "kernel": "(1, 1)", 
        "no_bias": "True", 
        "num_filter": "192", 
        "pad": "(0, 0)", 
        "stride": "(1, 1)"
      }, 
      "inputs": [[487, 0, 0], [488, 0, 0]]
    }, 
    {
      "op": "null", 
      "name": "mixed_6_tower_2_conv_batchnorm_gamma", 
      "attrs": {"fix_gamma": "True"}, 
      "inputs": []
    }, 
    {
      "op": "null", 
      "name": "mixed_6_tower_2_conv_batchnorm_beta", 
      "attrs": {"fix_gamma": "True"}, 
      "inputs": []
    }, 
    {
      "op": "null", 
      "name": "mixed_6_tower_2_conv_batchnorm_moving_mean", 
      "attrs": {
        "__init__": "[\"zero\", {}]", 
        "fix_gamma": "True"
      }, 
      "inputs": []
    }, 
    {
      "op": "null", 
      "name": "mixed_6_tower_2_conv_batchnorm_moving_var", 
      "attrs": {
        "__init__": "[\"one\", {}]", 
        "fix_gamma": "True"
      }, 
      "inputs": []
    }, 
    {
      "op": "BatchNorm", 
      "name": "mixed_6_tower_2_conv_batchnorm", 
      "attrs": {"fix_gamma": "True"}, 
      "inputs": [[489, 0, 0], [490, 0, 0], [491, 0, 0], [492, 0, 1], [493, 0, 1]]
    }, 
    {
      "op": "Activation", 
      "name": "mixed_6_tower_2_conv_relu", 
      "attrs": {"act_type": "relu"}, 
      "inputs": [[494, 0, 0]]
    }, 
    {
      "op": "Concat", 
      "name": "ch_concat_mixed_6_chconcat", 
      "attrs": {"num_args": "4"}, 
      "inputs": [[422, 0, 0], [446, 0, 0], [486, 0, 0], [495, 0, 0]]
    }, 
    {
      "op": "null", 
      "name": "mixed_7_conv_conv2d_weight", 
      "attrs": {
        "kernel": "(1, 1)", 
        "no_bias": "True", 
        "num_filter": "192", 
        "pad": "(0, 0)", 
        "stride": "(1, 1)"
      }, 
      "inputs": []
    }, 
    {
      "op": "Convolution", 
      "name": "mixed_7_conv_conv2d", 
      "attrs": {
        "kernel": "(1, 1)", 
        "no_bias": "True", 
        "num_filter": "192", 
        "pad": "(0, 0)", 
        "stride": "(1, 1)"
      }, 
      "inputs": [[496, 0, 0], [497, 0, 0]]
    }, 
    {
      "op": "null", 
      "name": "mixed_7_conv_batchnorm_gamma", 
      "attrs": {"fix_gamma": "True"}, 
      "inputs": []
    }, 
    {
      "op": "null", 
      "name": "mixed_7_conv_batchnorm_beta", 
      "attrs": {"fix_gamma": "True"}, 
      "inputs": []
    }, 
    {
      "op": "null", 
      "name": "mixed_7_conv_batchnorm_moving_mean", 
      "attrs": {
        "__init__": "[\"zero\", {}]", 
        "fix_gamma": "True"
      }, 
      "inputs": []
    }, 
    {
      "op": "null", 
      "name": "mixed_7_conv_batchnorm_moving_var", 
      "attrs": {
        "__init__": "[\"one\", {}]", 
        "fix_gamma": "True"
      }, 
      "inputs": []
    }, 
    {
      "op": "BatchNorm", 
      "name": "mixed_7_conv_batchnorm", 
      "attrs": {"fix_gamma": "True"}, 
      "inputs": [[498, 0, 0], [499, 0, 0], [500, 0, 0], [501, 0, 1], [502, 0, 1]]
    }, 
    {
      "op": "Activation", 
      "name": "mixed_7_conv_relu", 
      "attrs": {"act_type": "relu"}, 
      "inputs": [[503, 0, 0]]
    }, 
    {
      "op": "null", 
      "name": "mixed_7_tower_conv_conv2d_weight", 
      "attrs": {
        "kernel": "(1, 1)", 
        "no_bias": "True", 
        "num_filter": "192", 
        "pad": "(0, 0)", 
        "stride": "(1, 1)"
      }, 
      "inputs": []
    }, 
    {
      "op": "Convolution", 
      "name": "mixed_7_tower_conv_conv2d", 
      "attrs": {
        "kernel": "(1, 1)", 
        "no_bias": "True", 
        "num_filter": "192", 
        "pad": "(0, 0)", 
        "stride": "(1, 1)"
      }, 
      "inputs": [[496, 0, 0], [505, 0, 0]]
    }, 
    {
      "op": "null", 
      "name": "mixed_7_tower_conv_batchnorm_gamma", 
      "attrs": {"fix_gamma": "True"}, 
      "inputs": []
    }, 
    {
      "op": "null", 
      "name": "mixed_7_tower_conv_batchnorm_beta", 
      "attrs": {"fix_gamma": "True"}, 
      "inputs": []
    }, 
    {
      "op": "null", 
      "name": "mixed_7_tower_conv_batchnorm_moving_mean", 
      "attrs": {
        "__init__": "[\"zero\", {}]", 
        "fix_gamma": "True"
      }, 
      "inputs": []
    }, 
    {
      "op": "null", 
      "name": "mixed_7_tower_conv_batchnorm_moving_var", 
      "attrs": {
        "__init__": "[\"one\", {}]", 
        "fix_gamma": "True"
      }, 
      "inputs": []
    }, 
    {
      "op": "BatchNorm", 
      "name": "mixed_7_tower_conv_batchnorm", 
      "attrs": {"fix_gamma": "True"}, 
      "inputs": [[506, 0, 0], [507, 0, 0], [508, 0, 0], [509, 0, 1], [510, 0, 1]]
    }, 
    {
      "op": "Activation", 
      "name": "mixed_7_tower_conv_relu", 
      "attrs": {"act_type": "relu"}, 
      "inputs": [[511, 0, 0]]
    }, 
    {
      "op": "null", 
      "name": "mixed_7_tower_conv_1_conv2d_weight", 
      "attrs": {
        "kernel": "(1, 7)", 
        "no_bias": "True", 
        "num_filter": "192", 
        "pad": "(0, 3)", 
        "stride": "(1, 1)"
      }, 
      "inputs": []
    }, 
    {
      "op": "Convolution", 
      "name": "mixed_7_tower_conv_1_conv2d", 
      "attrs": {
        "kernel": "(1, 7)", 
        "no_bias": "True", 
        "num_filter": "192", 
        "pad": "(0, 3)", 
        "stride": "(1, 1)"
      }, 
      "inputs": [[512, 0, 0], [513, 0, 0]]
    }, 
    {
      "op": "null", 
      "name": "mixed_7_tower_conv_1_batchnorm_gamma", 
      "attrs": {"fix_gamma": "True"}, 
      "inputs": []
    }, 
    {
      "op": "null", 
      "name": "mixed_7_tower_conv_1_batchnorm_beta", 
      "attrs": {"fix_gamma": "True"}, 
      "inputs": []
    }, 
    {
      "op": "null", 
      "name": "mixed_7_tower_conv_1_batchnorm_moving_mean", 
      "attrs": {
        "__init__": "[\"zero\", {}]", 
        "fix_gamma": "True"
      }, 
      "inputs": []
    }, 
    {
      "op": "null", 
      "name": "mixed_7_tower_conv_1_batchnorm_moving_var", 
      "attrs": {
        "__init__": "[\"one\", {}]", 
        "fix_gamma": "True"
      }, 
      "inputs": []
    }, 
    {
      "op": "BatchNorm", 
      "name": "mixed_7_tower_conv_1_batchnorm", 
      "attrs": {"fix_gamma": "True"}, 
      "inputs": [[514, 0, 0], [515, 0, 0], [516, 0, 0], [517, 0, 1], [518, 0, 1]]
    }, 
    {
      "op": "Activation", 
      "name": "mixed_7_tower_conv_1_relu", 
      "attrs": {"act_type": "relu"}, 
      "inputs": [[519, 0, 0]]
    }, 
    {
      "op": "null", 
      "name": "mixed_7_tower_conv_2_conv2d_weight", 
      "attrs": {
        "kernel": "(7, 1)", 
        "no_bias": "True", 
        "num_filter": "192", 
        "pad": "(3, 0)", 
        "stride": "(1, 1)"
      }, 
      "inputs": []
    }, 
    {
      "op": "Convolution", 
      "name": "mixed_7_tower_conv_2_conv2d", 
      "attrs": {
        "kernel": "(7, 1)", 
        "no_bias": "True", 
        "num_filter": "192", 
        "pad": "(3, 0)", 
        "stride": "(1, 1)"
      }, 
      "inputs": [[520, 0, 0], [521, 0, 0]]
    }, 
    {
      "op": "null", 
      "name": "mixed_7_tower_conv_2_batchnorm_gamma", 
      "attrs": {"fix_gamma": "True"}, 
      "inputs": []
    }, 
    {
      "op": "null", 
      "name": "mixed_7_tower_conv_2_batchnorm_beta", 
      "attrs": {"fix_gamma": "True"}, 
      "inputs": []
    }, 
    {
      "op": "null", 
      "name": "mixed_7_tower_conv_2_batchnorm_moving_mean", 
      "attrs": {
        "__init__": "[\"zero\", {}]", 
        "fix_gamma": "True"
      }, 
      "inputs": []
    }, 
    {
      "op": "null", 
      "name": "mixed_7_tower_conv_2_batchnorm_moving_var", 
      "attrs": {
        "__init__": "[\"one\", {}]", 
        "fix_gamma": "True"
      }, 
      "inputs": []
    }, 
    {
      "op": "BatchNorm", 
      "name": "mixed_7_tower_conv_2_batchnorm", 
      "attrs": {"fix_gamma": "True"}, 
      "inputs": [[522, 0, 0], [523, 0, 0], [524, 0, 0], [525, 0, 1], [526, 0, 1]]
    }, 
    {
      "op": "Activation", 
      "name": "mixed_7_tower_conv_2_relu", 
      "attrs": {"act_type": "relu"}, 
      "inputs": [[527, 0, 0]]
    }, 
    {
      "op": "null", 
      "name": "mixed_7_tower_1_conv_conv2d_weight", 
      "attrs": {
        "kernel": "(1, 1)", 
        "no_bias": "True", 
        "num_filter": "192", 
        "pad": "(0, 0)", 
        "stride": "(1, 1)"
      }, 
      "inputs": []
    }, 
    {
      "op": "Convolution", 
      "name": "mixed_7_tower_1_conv_conv2d", 
      "attrs": {
        "kernel": "(1, 1)", 
        "no_bias": "True", 
        "num_filter": "192", 
        "pad": "(0, 0)", 
        "stride": "(1, 1)"
      }, 
      "inputs": [[496, 0, 0], [529, 0, 0]]
    }, 
    {
      "op": "null", 
      "name": "mixed_7_tower_1_conv_batchnorm_gamma", 
      "attrs": {"fix_gamma": "True"}, 
      "inputs": []
    }, 
    {
      "op": "null", 
      "name": "mixed_7_tower_1_conv_batchnorm_beta", 
      "attrs": {"fix_gamma": "True"}, 
      "inputs": []
    }, 
    {
      "op": "null", 
      "name": "mixed_7_tower_1_conv_batchnorm_moving_mean", 
      "attrs": {
        "__init__": "[\"zero\", {}]", 
        "fix_gamma": "True"
      }, 
      "inputs": []
    }, 
    {
      "op": "null", 
      "name": "mixed_7_tower_1_conv_batchnorm_moving_var", 
      "attrs": {
        "__init__": "[\"one\", {}]", 
        "fix_gamma": "True"
      }, 
      "inputs": []
    }, 
    {
      "op": "BatchNorm", 
      "name": "mixed_7_tower_1_conv_batchnorm", 
      "attrs": {"fix_gamma": "True"}, 
      "inputs": [[530, 0, 0], [531, 0, 0], [532, 0, 0], [533, 0, 1], [534, 0, 1]]
    }, 
    {
      "op": "Activation", 
      "name": "mixed_7_tower_1_conv_relu", 
      "attrs": {"act_type": "relu"}, 
      "inputs": [[535, 0, 0]]
    }, 
    {
      "op": "null", 
      "name": "mixed_7_tower_1_conv_1_conv2d_weight", 
      "attrs": {
        "kernel": "(7, 1)", 
        "no_bias": "True", 
        "num_filter": "192", 
        "pad": "(3, 0)", 
        "stride": "(1, 1)"
      }, 
      "inputs": []
    }, 
    {
      "op": "Convolution", 
      "name": "mixed_7_tower_1_conv_1_conv2d", 
      "attrs": {
        "kernel": "(7, 1)", 
        "no_bias": "True", 
        "num_filter": "192", 
        "pad": "(3, 0)", 
        "stride": "(1, 1)"
      }, 
      "inputs": [[536, 0, 0], [537, 0, 0]]
    }, 
    {
      "op": "null", 
      "name": "mixed_7_tower_1_conv_1_batchnorm_gamma", 
      "attrs": {"fix_gamma": "True"}, 
      "inputs": []
    }, 
    {
      "op": "null", 
      "name": "mixed_7_tower_1_conv_1_batchnorm_beta", 
      "attrs": {"fix_gamma": "True"}, 
      "inputs": []
    }, 
    {
      "op": "null", 
      "name": "mixed_7_tower_1_conv_1_batchnorm_moving_mean", 
      "attrs": {
        "__init__": "[\"zero\", {}]", 
        "fix_gamma": "True"
      }, 
      "inputs": []
    }, 
    {
      "op": "null", 
      "name": "mixed_7_tower_1_conv_1_batchnorm_moving_var", 
      "attrs": {
        "__init__": "[\"one\", {}]", 
        "fix_gamma": "True"
      }, 
      "inputs": []
    }, 
    {
      "op": "BatchNorm", 
      "name": "mixed_7_tower_1_conv_1_batchnorm", 
      "attrs": {"fix_gamma": "True"}, 
      "inputs": [[538, 0, 0], [539, 0, 0], [540, 0, 0], [541, 0, 1], [542, 0, 1]]
    }, 
    {
      "op": "Activation", 
      "name": "mixed_7_tower_1_conv_1_relu", 
      "attrs": {"act_type": "relu"}, 
      "inputs": [[543, 0, 0]]
    }, 
    {
      "op": "null", 
      "name": "mixed_7_tower_1_conv_2_conv2d_weight", 
      "attrs": {
        "kernel": "(1, 7)", 
        "no_bias": "True", 
        "num_filter": "192", 
        "pad": "(0, 3)", 
        "stride": "(1, 1)"
      }, 
      "inputs": []
    }, 
    {
      "op": "Convolution", 
      "name": "mixed_7_tower_1_conv_2_conv2d", 
      "attrs": {
        "kernel": "(1, 7)", 
        "no_bias": "True", 
        "num_filter": "192", 
        "pad": "(0, 3)", 
        "stride": "(1, 1)"
      }, 
      "inputs": [[544, 0, 0], [545, 0, 0]]
    }, 
    {
      "op": "null", 
      "name": "mixed_7_tower_1_conv_2_batchnorm_gamma", 
      "attrs": {"fix_gamma": "True"}, 
      "inputs": []
    }, 
    {
      "op": "null", 
      "name": "mixed_7_tower_1_conv_2_batchnorm_beta", 
      "attrs": {"fix_gamma": "True"}, 
      "inputs": []
    }, 
    {
      "op": "null", 
      "name": "mixed_7_tower_1_conv_2_batchnorm_moving_mean", 
      "attrs": {
        "__init__": "[\"zero\", {}]", 
        "fix_gamma": "True"
      }, 
      "inputs": []
    }, 
    {
      "op": "null", 
      "name": "mixed_7_tower_1_conv_2_batchnorm_moving_var", 
      "attrs": {
        "__init__": "[\"one\", {}]", 
        "fix_gamma": "True"
      }, 
      "inputs": []
    }, 
    {
      "op": "BatchNorm", 
      "name": "mixed_7_tower_1_conv_2_batchnorm", 
      "attrs": {"fix_gamma": "True"}, 
      "inputs": [[546, 0, 0], [547, 0, 0], [548, 0, 0], [549, 0, 1], [550, 0, 1]]
    }, 
    {
      "op": "Activation", 
      "name": "mixed_7_tower_1_conv_2_relu", 
      "attrs": {"act_type": "relu"}, 
      "inputs": [[551, 0, 0]]
    }, 
    {
      "op": "null", 
      "name": "mixed_7_tower_1_conv_3_conv2d_weight", 
      "attrs": {
        "kernel": "(7, 1)", 
        "no_bias": "True", 
        "num_filter": "192", 
        "pad": "(3, 0)", 
        "stride": "(1, 1)"
      }, 
      "inputs": []
    }, 
    {
      "op": "Convolution", 
      "name": "mixed_7_tower_1_conv_3_conv2d", 
      "attrs": {
        "kernel": "(7, 1)", 
        "no_bias": "True", 
        "num_filter": "192", 
        "pad": "(3, 0)", 
        "stride": "(1, 1)"
      }, 
      "inputs": [[552, 0, 0], [553, 0, 0]]
    }, 
    {
      "op": "null", 
      "name": "mixed_7_tower_1_conv_3_batchnorm_gamma", 
      "attrs": {"fix_gamma": "True"}, 
      "inputs": []
    }, 
    {
      "op": "null", 
      "name": "mixed_7_tower_1_conv_3_batchnorm_beta", 
      "attrs": {"fix_gamma": "True"}, 
      "inputs": []
    }, 
    {
      "op": "null", 
      "name": "mixed_7_tower_1_conv_3_batchnorm_moving_mean", 
      "attrs": {
        "__init__": "[\"zero\", {}]", 
        "fix_gamma": "True"
      }, 
      "inputs": []
    }, 
    {
      "op": "null", 
      "name": "mixed_7_tower_1_conv_3_batchnorm_moving_var", 
      "attrs": {
        "__init__": "[\"one\", {}]", 
        "fix_gamma": "True"
      }, 
      "inputs": []
    }, 
    {
      "op": "BatchNorm", 
      "name": "mixed_7_tower_1_conv_3_batchnorm", 
      "attrs": {"fix_gamma": "True"}, 
      "inputs": [[554, 0, 0], [555, 0, 0], [556, 0, 0], [557, 0, 1], [558, 0, 1]]
    }, 
    {
      "op": "Activation", 
      "name": "mixed_7_tower_1_conv_3_relu", 
      "attrs": {"act_type": "relu"}, 
      "inputs": [[559, 0, 0]]
    }, 
    {
      "op": "null", 
      "name": "mixed_7_tower_1_conv_4_conv2d_weight", 
      "attrs": {
        "kernel": "(1, 7)", 
        "no_bias": "True", 
        "num_filter": "192", 
        "pad": "(0, 3)", 
        "stride": "(1, 1)"
      }, 
      "inputs": []
    }, 
    {
      "op": "Convolution", 
      "name": "mixed_7_tower_1_conv_4_conv2d", 
      "attrs": {
        "kernel": "(1, 7)", 
        "no_bias": "True", 
        "num_filter": "192", 
        "pad": "(0, 3)", 
        "stride": "(1, 1)"
      }, 
      "inputs": [[560, 0, 0], [561, 0, 0]]
    }, 
    {
      "op": "null", 
      "name": "mixed_7_tower_1_conv_4_batchnorm_gamma", 
      "attrs": {"fix_gamma": "True"}, 
      "inputs": []
    }, 
    {
      "op": "null", 
      "name": "mixed_7_tower_1_conv_4_batchnorm_beta", 
      "attrs": {"fix_gamma": "True"}, 
      "inputs": []
    }, 
    {
      "op": "null", 
      "name": "mixed_7_tower_1_conv_4_batchnorm_moving_mean", 
      "attrs": {
        "__init__": "[\"zero\", {}]", 
        "fix_gamma": "True"
      }, 
      "inputs": []
    }, 
    {
      "op": "null", 
      "name": "mixed_7_tower_1_conv_4_batchnorm_moving_var", 
      "attrs": {
        "__init__": "[\"one\", {}]", 
        "fix_gamma": "True"
      }, 
      "inputs": []
    }, 
    {
      "op": "BatchNorm", 
      "name": "mixed_7_tower_1_conv_4_batchnorm", 
      "attrs": {"fix_gamma": "True"}, 
      "inputs": [[562, 0, 0], [563, 0, 0], [564, 0, 0], [565, 0, 1], [566, 0, 1]]
    }, 
    {
      "op": "Activation", 
      "name": "mixed_7_tower_1_conv_4_relu", 
      "attrs": {"act_type": "relu"}, 
      "inputs": [[567, 0, 0]]
    }, 
    {
      "op": "Pooling", 
      "name": "avg_pool_mixed_7_pool", 
      "attrs": {
        "kernel": "(3, 3)", 
        "pad": "(1, 1)", 
        "pool_type": "avg", 
        "stride": "(1, 1)"
      }, 
      "inputs": [[496, 0, 0]]
    }, 
    {
      "op": "null", 
      "name": "mixed_7_tower_2_conv_conv2d_weight", 
      "attrs": {
        "kernel": "(1, 1)", 
        "no_bias": "True", 
        "num_filter": "192", 
        "pad": "(0, 0)", 
        "stride": "(1, 1)"
      }, 
      "inputs": []
    }, 
    {
      "op": "Convolution", 
      "name": "mixed_7_tower_2_conv_conv2d", 
      "attrs": {
        "kernel": "(1, 1)", 
        "no_bias": "True", 
        "num_filter": "192", 
        "pad": "(0, 0)", 
        "stride": "(1, 1)"
      }, 
      "inputs": [[569, 0, 0], [570, 0, 0]]
    }, 
    {
      "op": "null", 
      "name": "mixed_7_tower_2_conv_batchnorm_gamma", 
      "attrs": {"fix_gamma": "True"}, 
      "inputs": []
    }, 
    {
      "op": "null", 
      "name": "mixed_7_tower_2_conv_batchnorm_beta", 
      "attrs": {"fix_gamma": "True"}, 
      "inputs": []
    }, 
    {
      "op": "null", 
      "name": "mixed_7_tower_2_conv_batchnorm_moving_mean", 
      "attrs": {
        "__init__": "[\"zero\", {}]", 
        "fix_gamma": "True"
      }, 
      "inputs": []
    }, 
    {
      "op": "null", 
      "name": "mixed_7_tower_2_conv_batchnorm_moving_var", 
      "attrs": {
        "__init__": "[\"one\", {}]", 
        "fix_gamma": "True"
      }, 
      "inputs": []
    }, 
    {
      "op": "BatchNorm", 
      "name": "mixed_7_tower_2_conv_batchnorm", 
      "attrs": {"fix_gamma": "True"}, 
      "inputs": [[571, 0, 0], [572, 0, 0], [573, 0, 0], [574, 0, 1], [575, 0, 1]]
    }, 
    {
      "op": "Activation", 
      "name": "mixed_7_tower_2_conv_relu", 
      "attrs": {"act_type": "relu"}, 
      "inputs": [[576, 0, 0]]
    }, 
    {
      "op": "Concat", 
      "name": "ch_concat_mixed_7_chconcat", 
      "attrs": {"num_args": "4"}, 
      "inputs": [[504, 0, 0], [528, 0, 0], [568, 0, 0], [577, 0, 0]]
    }, 
    {
      "op": "null", 
      "name": "ch_concat_mixed_7_chconcat_cls_pred_conv_weight", 
      "attrs": {
        "kernel": "(3, 3)", 
        "num_filter": "84", 
        "pad": "(1, 1)", 
        "stride": "(1, 1)"
      }, 
      "inputs": []
    }, 
    {
      "op": "null", 
      "name": "ch_concat_mixed_7_chconcat_cls_pred_conv_bias", 
      "attrs": {
        "__init__": "[\"constant\", {\"value\": 0.0}]", 
        "__lr_mult__": "2.0"
      }, 
      "inputs": []
    }, 
    {
      "op": "Convolution", 
      "name": "ch_concat_mixed_7_chconcat_cls_pred_conv", 
      "attrs": {
        "kernel": "(3, 3)", 
        "num_filter": "84", 
        "pad": "(1, 1)", 
        "stride": "(1, 1)"
      }, 
      "inputs": [[578, 0, 0], [579, 0, 0], [580, 0, 0]]
    }, 
    {
      "op": "transpose", 
      "name": "transpose1", 
      "attrs": {"axes": "(0, 2, 3, 1)"}, 
      "inputs": [[581, 0, 0]]
    }, 
    {
      "op": "Flatten", 
      "name": "flatten1", 
      "inputs": [[582, 0, 0]]
    }, 
    {
      "op": "null", 
      "name": "mixed_8_tower_conv_conv2d_weight", 
      "attrs": {
        "kernel": "(1, 1)", 
        "no_bias": "True", 
        "num_filter": "192", 
        "pad": "(0, 0)", 
        "stride": "(1, 1)"
      }, 
      "inputs": []
    }, 
    {
      "op": "Convolution", 
      "name": "mixed_8_tower_conv_conv2d", 
      "attrs": {
        "kernel": "(1, 1)", 
        "no_bias": "True", 
        "num_filter": "192", 
        "pad": "(0, 0)", 
        "stride": "(1, 1)"
      }, 
      "inputs": [[578, 0, 0], [584, 0, 0]]
    }, 
    {
      "op": "null", 
      "name": "mixed_8_tower_conv_batchnorm_gamma", 
      "attrs": {"fix_gamma": "True"}, 
      "inputs": []
    }, 
    {
      "op": "null", 
      "name": "mixed_8_tower_conv_batchnorm_beta", 
      "attrs": {"fix_gamma": "True"}, 
      "inputs": []
    }, 
    {
      "op": "null", 
      "name": "mixed_8_tower_conv_batchnorm_moving_mean", 
      "attrs": {
        "__init__": "[\"zero\", {}]", 
        "fix_gamma": "True"
      }, 
      "inputs": []
    }, 
    {
      "op": "null", 
      "name": "mixed_8_tower_conv_batchnorm_moving_var", 
      "attrs": {
        "__init__": "[\"one\", {}]", 
        "fix_gamma": "True"
      }, 
      "inputs": []
    }, 
    {
      "op": "BatchNorm", 
      "name": "mixed_8_tower_conv_batchnorm", 
      "attrs": {"fix_gamma": "True"}, 
      "inputs": [[585, 0, 0], [586, 0, 0], [587, 0, 0], [588, 0, 1], [589, 0, 1]]
    }, 
    {
      "op": "Activation", 
      "name": "mixed_8_tower_conv_relu", 
      "attrs": {"act_type": "relu"}, 
      "inputs": [[590, 0, 0]]
    }, 
    {
      "op": "null", 
      "name": "mixed_8_tower_conv_1_conv2d_weight", 
      "attrs": {
        "kernel": "(3, 3)", 
        "no_bias": "True", 
        "num_filter": "320", 
        "pad": "(0, 0)", 
        "stride": "(2, 2)"
      }, 
      "inputs": []
    }, 
    {
      "op": "Convolution", 
      "name": "mixed_8_tower_conv_1_conv2d", 
      "attrs": {
        "kernel": "(3, 3)", 
        "no_bias": "True", 
        "num_filter": "320", 
        "pad": "(0, 0)", 
        "stride": "(2, 2)"
      }, 
      "inputs": [[591, 0, 0], [592, 0, 0]]
    }, 
    {
      "op": "null", 
      "name": "mixed_8_tower_conv_1_batchnorm_gamma", 
      "attrs": {"fix_gamma": "True"}, 
      "inputs": []
    }, 
    {
      "op": "null", 
      "name": "mixed_8_tower_conv_1_batchnorm_beta", 
      "attrs": {"fix_gamma": "True"}, 
      "inputs": []
    }, 
    {
      "op": "null", 
      "name": "mixed_8_tower_conv_1_batchnorm_moving_mean", 
      "attrs": {
        "__init__": "[\"zero\", {}]", 
        "fix_gamma": "True"
      }, 
      "inputs": []
    }, 
    {
      "op": "null", 
      "name": "mixed_8_tower_conv_1_batchnorm_moving_var", 
      "attrs": {
        "__init__": "[\"one\", {}]", 
        "fix_gamma": "True"
      }, 
      "inputs": []
    }, 
    {
      "op": "BatchNorm", 
      "name": "mixed_8_tower_conv_1_batchnorm", 
      "attrs": {"fix_gamma": "True"}, 
      "inputs": [[593, 0, 0], [594, 0, 0], [595, 0, 0], [596, 0, 1], [597, 0, 1]]
    }, 
    {
      "op": "Activation", 
      "name": "mixed_8_tower_conv_1_relu", 
      "attrs": {"act_type": "relu"}, 
      "inputs": [[598, 0, 0]]
    }, 
    {
      "op": "null", 
      "name": "mixed_8_tower_1_conv_conv2d_weight", 
      "attrs": {
        "kernel": "(1, 1)", 
        "no_bias": "True", 
        "num_filter": "192", 
        "pad": "(0, 0)", 
        "stride": "(1, 1)"
      }, 
      "inputs": []
    }, 
    {
      "op": "Convolution", 
      "name": "mixed_8_tower_1_conv_conv2d", 
      "attrs": {
        "kernel": "(1, 1)", 
        "no_bias": "True", 
        "num_filter": "192", 
        "pad": "(0, 0)", 
        "stride": "(1, 1)"
      }, 
      "inputs": [[578, 0, 0], [600, 0, 0]]
    }, 
    {
      "op": "null", 
      "name": "mixed_8_tower_1_conv_batchnorm_gamma", 
      "attrs": {"fix_gamma": "True"}, 
      "inputs": []
    }, 
    {
      "op": "null", 
      "name": "mixed_8_tower_1_conv_batchnorm_beta", 
      "attrs": {"fix_gamma": "True"}, 
      "inputs": []
    }, 
    {
      "op": "null", 
      "name": "mixed_8_tower_1_conv_batchnorm_moving_mean", 
      "attrs": {
        "__init__": "[\"zero\", {}]", 
        "fix_gamma": "True"
      }, 
      "inputs": []
    }, 
    {
      "op": "null", 
      "name": "mixed_8_tower_1_conv_batchnorm_moving_var", 
      "attrs": {
        "__init__": "[\"one\", {}]", 
        "fix_gamma": "True"
      }, 
      "inputs": []
    }, 
    {
      "op": "BatchNorm", 
      "name": "mixed_8_tower_1_conv_batchnorm", 
      "attrs": {"fix_gamma": "True"}, 
      "inputs": [[601, 0, 0], [602, 0, 0], [603, 0, 0], [604, 0, 1], [605, 0, 1]]
    }, 
    {
      "op": "Activation", 
      "name": "mixed_8_tower_1_conv_relu", 
      "attrs": {"act_type": "relu"}, 
      "inputs": [[606, 0, 0]]
    }, 
    {
      "op": "null", 
      "name": "mixed_8_tower_1_conv_1_conv2d_weight", 
      "attrs": {
        "kernel": "(1, 7)", 
        "no_bias": "True", 
        "num_filter": "192", 
        "pad": "(0, 3)", 
        "stride": "(1, 1)"
      }, 
      "inputs": []
    }, 
    {
      "op": "Convolution", 
      "name": "mixed_8_tower_1_conv_1_conv2d", 
      "attrs": {
        "kernel": "(1, 7)", 
        "no_bias": "True", 
        "num_filter": "192", 
        "pad": "(0, 3)", 
        "stride": "(1, 1)"
      }, 
      "inputs": [[607, 0, 0], [608, 0, 0]]
    }, 
    {
      "op": "null", 
      "name": "mixed_8_tower_1_conv_1_batchnorm_gamma", 
      "attrs": {"fix_gamma": "True"}, 
      "inputs": []
    }, 
    {
      "op": "null", 
      "name": "mixed_8_tower_1_conv_1_batchnorm_beta", 
      "attrs": {"fix_gamma": "True"}, 
      "inputs": []
    }, 
    {
      "op": "null", 
      "name": "mixed_8_tower_1_conv_1_batchnorm_moving_mean", 
      "attrs": {
        "__init__": "[\"zero\", {}]", 
        "fix_gamma": "True"
      }, 
      "inputs": []
    }, 
    {
      "op": "null", 
      "name": "mixed_8_tower_1_conv_1_batchnorm_moving_var", 
      "attrs": {
        "__init__": "[\"one\", {}]", 
        "fix_gamma": "True"
      }, 
      "inputs": []
    }, 
    {
      "op": "BatchNorm", 
      "name": "mixed_8_tower_1_conv_1_batchnorm", 
      "attrs": {"fix_gamma": "True"}, 
      "inputs": [[609, 0, 0], [610, 0, 0], [611, 0, 0], [612, 0, 1], [613, 0, 1]]
    }, 
    {
      "op": "Activation", 
      "name": "mixed_8_tower_1_conv_1_relu", 
      "attrs": {"act_type": "relu"}, 
      "inputs": [[614, 0, 0]]
    }, 
    {
      "op": "null", 
      "name": "mixed_8_tower_1_conv_2_conv2d_weight", 
      "attrs": {
        "kernel": "(7, 1)", 
        "no_bias": "True", 
        "num_filter": "192", 
        "pad": "(3, 0)", 
        "stride": "(1, 1)"
      }, 
      "inputs": []
    }, 
    {
      "op": "Convolution", 
      "name": "mixed_8_tower_1_conv_2_conv2d", 
      "attrs": {
        "kernel": "(7, 1)", 
        "no_bias": "True", 
        "num_filter": "192", 
        "pad": "(3, 0)", 
        "stride": "(1, 1)"
      }, 
      "inputs": [[615, 0, 0], [616, 0, 0]]
    }, 
    {
      "op": "null", 
      "name": "mixed_8_tower_1_conv_2_batchnorm_gamma", 
      "attrs": {"fix_gamma": "True"}, 
      "inputs": []
    }, 
    {
      "op": "null", 
      "name": "mixed_8_tower_1_conv_2_batchnorm_beta", 
      "attrs": {"fix_gamma": "True"}, 
      "inputs": []
    }, 
    {
      "op": "null", 
      "name": "mixed_8_tower_1_conv_2_batchnorm_moving_mean", 
      "attrs": {
        "__init__": "[\"zero\", {}]", 
        "fix_gamma": "True"
      }, 
      "inputs": []
    }, 
    {
      "op": "null", 
      "name": "mixed_8_tower_1_conv_2_batchnorm_moving_var", 
      "attrs": {
        "__init__": "[\"one\", {}]", 
        "fix_gamma": "True"
      }, 
      "inputs": []
    }, 
    {
      "op": "BatchNorm", 
      "name": "mixed_8_tower_1_conv_2_batchnorm", 
      "attrs": {"fix_gamma": "True"}, 
      "inputs": [[617, 0, 0], [618, 0, 0], [619, 0, 0], [620, 0, 1], [621, 0, 1]]
    }, 
    {
      "op": "Activation", 
      "name": "mixed_8_tower_1_conv_2_relu", 
      "attrs": {"act_type": "relu"}, 
      "inputs": [[622, 0, 0]]
    }, 
    {
      "op": "null", 
      "name": "mixed_8_tower_1_conv_3_conv2d_weight", 
      "attrs": {
        "kernel": "(3, 3)", 
        "no_bias": "True", 
        "num_filter": "192", 
        "pad": "(0, 0)", 
        "stride": "(2, 2)"
      }, 
      "inputs": []
    }, 
    {
      "op": "Convolution", 
      "name": "mixed_8_tower_1_conv_3_conv2d", 
      "attrs": {
        "kernel": "(3, 3)", 
        "no_bias": "True", 
        "num_filter": "192", 
        "pad": "(0, 0)", 
        "stride": "(2, 2)"
      }, 
      "inputs": [[623, 0, 0], [624, 0, 0]]
    }, 
    {
      "op": "null", 
      "name": "mixed_8_tower_1_conv_3_batchnorm_gamma", 
      "attrs": {"fix_gamma": "True"}, 
      "inputs": []
    }, 
    {
      "op": "null", 
      "name": "mixed_8_tower_1_conv_3_batchnorm_beta", 
      "attrs": {"fix_gamma": "True"}, 
      "inputs": []
    }, 
    {
      "op": "null", 
      "name": "mixed_8_tower_1_conv_3_batchnorm_moving_mean", 
      "attrs": {
        "__init__": "[\"zero\", {}]", 
        "fix_gamma": "True"
      }, 
      "inputs": []
    }, 
    {
      "op": "null", 
      "name": "mixed_8_tower_1_conv_3_batchnorm_moving_var", 
      "attrs": {
        "__init__": "[\"one\", {}]", 
        "fix_gamma": "True"
      }, 
      "inputs": []
    }, 
    {
      "op": "BatchNorm", 
      "name": "mixed_8_tower_1_conv_3_batchnorm", 
      "attrs": {"fix_gamma": "True"}, 
      "inputs": [[625, 0, 0], [626, 0, 0], [627, 0, 0], [628, 0, 1], [629, 0, 1]]
    }, 
    {
      "op": "Activation", 
      "name": "mixed_8_tower_1_conv_3_relu", 
      "attrs": {"act_type": "relu"}, 
      "inputs": [[630, 0, 0]]
    }, 
    {
      "op": "Pooling", 
      "name": "max_pool_mixed_8_pool", 
      "attrs": {
        "kernel": "(3, 3)", 
        "pool_type": "max", 
        "stride": "(2, 2)"
      }, 
      "inputs": [[578, 0, 0]]
    }, 
    {
      "op": "Concat", 
      "name": "ch_concat_mixed_8_chconcat", 
      "attrs": {"num_args": "3"}, 
      "inputs": [[599, 0, 0], [631, 0, 0], [632, 0, 0]]
    }, 
    {
      "op": "null", 
      "name": "mixed_9_conv_conv2d_weight", 
      "attrs": {
        "kernel": "(1, 1)", 
        "no_bias": "True", 
        "num_filter": "320", 
        "pad": "(0, 0)", 
        "stride": "(1, 1)"
      }, 
      "inputs": []
    }, 
    {
      "op": "Convolution", 
      "name": "mixed_9_conv_conv2d", 
      "attrs": {
        "kernel": "(1, 1)", 
        "no_bias": "True", 
        "num_filter": "320", 
        "pad": "(0, 0)", 
        "stride": "(1, 1)"
      }, 
      "inputs": [[633, 0, 0], [634, 0, 0]]
    }, 
    {
      "op": "null", 
      "name": "mixed_9_conv_batchnorm_gamma", 
      "attrs": {"fix_gamma": "True"}, 
      "inputs": []
    }, 
    {
      "op": "null", 
      "name": "mixed_9_conv_batchnorm_beta", 
      "attrs": {"fix_gamma": "True"}, 
      "inputs": []
    }, 
    {
      "op": "null", 
      "name": "mixed_9_conv_batchnorm_moving_mean", 
      "attrs": {
        "__init__": "[\"zero\", {}]", 
        "fix_gamma": "True"
      }, 
      "inputs": []
    }, 
    {
      "op": "null", 
      "name": "mixed_9_conv_batchnorm_moving_var", 
      "attrs": {
        "__init__": "[\"one\", {}]", 
        "fix_gamma": "True"
      }, 
      "inputs": []
    }, 
    {
      "op": "BatchNorm", 
      "name": "mixed_9_conv_batchnorm", 
      "attrs": {"fix_gamma": "True"}, 
      "inputs": [[635, 0, 0], [636, 0, 0], [637, 0, 0], [638, 0, 1], [639, 0, 1]]
    }, 
    {
      "op": "Activation", 
      "name": "mixed_9_conv_relu", 
      "attrs": {"act_type": "relu"}, 
      "inputs": [[640, 0, 0]]
    }, 
    {
      "op": "null", 
      "name": "mixed_9_tower_conv_conv2d_weight", 
      "attrs": {
        "kernel": "(1, 1)", 
        "no_bias": "True", 
        "num_filter": "384", 
        "pad": "(0, 0)", 
        "stride": "(1, 1)"
      }, 
      "inputs": []
    }, 
    {
      "op": "Convolution", 
      "name": "mixed_9_tower_conv_conv2d", 
      "attrs": {
        "kernel": "(1, 1)", 
        "no_bias": "True", 
        "num_filter": "384", 
        "pad": "(0, 0)", 
        "stride": "(1, 1)"
      }, 
      "inputs": [[633, 0, 0], [642, 0, 0]]
    }, 
    {
      "op": "null", 
      "name": "mixed_9_tower_conv_batchnorm_gamma", 
      "attrs": {"fix_gamma": "True"}, 
      "inputs": []
    }, 
    {
      "op": "null", 
      "name": "mixed_9_tower_conv_batchnorm_beta", 
      "attrs": {"fix_gamma": "True"}, 
      "inputs": []
    }, 
    {
      "op": "null", 
      "name": "mixed_9_tower_conv_batchnorm_moving_mean", 
      "attrs": {
        "__init__": "[\"zero\", {}]", 
        "fix_gamma": "True"
      }, 
      "inputs": []
    }, 
    {
      "op": "null", 
      "name": "mixed_9_tower_conv_batchnorm_moving_var", 
      "attrs": {
        "__init__": "[\"one\", {}]", 
        "fix_gamma": "True"
      }, 
      "inputs": []
    }, 
    {
      "op": "BatchNorm", 
      "name": "mixed_9_tower_conv_batchnorm", 
      "attrs": {"fix_gamma": "True"}, 
      "inputs": [[643, 0, 0], [644, 0, 0], [645, 0, 0], [646, 0, 1], [647, 0, 1]]
    }, 
    {
      "op": "Activation", 
      "name": "mixed_9_tower_conv_relu", 
      "attrs": {"act_type": "relu"}, 
      "inputs": [[648, 0, 0]]
    }, 
    {
      "op": "null", 
      "name": "mixed_9_tower_mixed_conv_conv2d_weight", 
      "attrs": {
        "kernel": "(1, 3)", 
        "no_bias": "True", 
        "num_filter": "384", 
        "pad": "(0, 1)", 
        "stride": "(1, 1)"
      }, 
      "inputs": []
    }, 
    {
      "op": "Convolution", 
      "name": "mixed_9_tower_mixed_conv_conv2d", 
      "attrs": {
        "kernel": "(1, 3)", 
        "no_bias": "True", 
        "num_filter": "384", 
        "pad": "(0, 1)", 
        "stride": "(1, 1)"
      }, 
      "inputs": [[649, 0, 0], [650, 0, 0]]
    }, 
    {
      "op": "null", 
      "name": "mixed_9_tower_mixed_conv_batchnorm_gamma", 
      "attrs": {"fix_gamma": "True"}, 
      "inputs": []
    }, 
    {
      "op": "null", 
      "name": "mixed_9_tower_mixed_conv_batchnorm_beta", 
      "attrs": {"fix_gamma": "True"}, 
      "inputs": []
    }, 
    {
      "op": "null", 
      "name": "mixed_9_tower_mixed_conv_batchnorm_moving_mean", 
      "attrs": {
        "__init__": "[\"zero\", {}]", 
        "fix_gamma": "True"
      }, 
      "inputs": []
    }, 
    {
      "op": "null", 
      "name": "mixed_9_tower_mixed_conv_batchnorm_moving_var", 
      "attrs": {
        "__init__": "[\"one\", {}]", 
        "fix_gamma": "True"
      }, 
      "inputs": []
    }, 
    {
      "op": "BatchNorm", 
      "name": "mixed_9_tower_mixed_conv_batchnorm", 
      "attrs": {"fix_gamma": "True"}, 
      "inputs": [[651, 0, 0], [652, 0, 0], [653, 0, 0], [654, 0, 1], [655, 0, 1]]
    }, 
    {
      "op": "Activation", 
      "name": "mixed_9_tower_mixed_conv_relu", 
      "attrs": {"act_type": "relu"}, 
      "inputs": [[656, 0, 0]]
    }, 
    {
      "op": "null", 
      "name": "mixed_9_tower_mixed_conv_1_conv2d_weight", 
      "attrs": {
        "kernel": "(3, 1)", 
        "no_bias": "True", 
        "num_filter": "384", 
        "pad": "(1, 0)", 
        "stride": "(1, 1)"
      }, 
      "inputs": []
    }, 
    {
      "op": "Convolution", 
      "name": "mixed_9_tower_mixed_conv_1_conv2d", 
      "attrs": {
        "kernel": "(3, 1)", 
        "no_bias": "True", 
        "num_filter": "384", 
        "pad": "(1, 0)", 
        "stride": "(1, 1)"
      }, 
      "inputs": [[649, 0, 0], [658, 0, 0]]
    }, 
    {
      "op": "null", 
      "name": "mixed_9_tower_mixed_conv_1_batchnorm_gamma", 
      "attrs": {"fix_gamma": "True"}, 
      "inputs": []
    }, 
    {
      "op": "null", 
      "name": "mixed_9_tower_mixed_conv_1_batchnorm_beta", 
      "attrs": {"fix_gamma": "True"}, 
      "inputs": []
    }, 
    {
      "op": "null", 
      "name": "mixed_9_tower_mixed_conv_1_batchnorm_moving_mean", 
      "attrs": {
        "__init__": "[\"zero\", {}]", 
        "fix_gamma": "True"
      }, 
      "inputs": []
    }, 
    {
      "op": "null", 
      "name": "mixed_9_tower_mixed_conv_1_batchnorm_moving_var", 
      "attrs": {
        "__init__": "[\"one\", {}]", 
        "fix_gamma": "True"
      }, 
      "inputs": []
    }, 
    {
      "op": "BatchNorm", 
      "name": "mixed_9_tower_mixed_conv_1_batchnorm", 
      "attrs": {"fix_gamma": "True"}, 
      "inputs": [[659, 0, 0], [660, 0, 0], [661, 0, 0], [662, 0, 1], [663, 0, 1]]
    }, 
    {
      "op": "Activation", 
      "name": "mixed_9_tower_mixed_conv_1_relu", 
      "attrs": {"act_type": "relu"}, 
      "inputs": [[664, 0, 0]]
    }, 
    {
      "op": "null", 
      "name": "mixed_9_tower_1_conv_conv2d_weight", 
      "attrs": {
        "kernel": "(1, 1)", 
        "no_bias": "True", 
        "num_filter": "448", 
        "pad": "(0, 0)", 
        "stride": "(1, 1)"
      }, 
      "inputs": []
    }, 
    {
      "op": "Convolution", 
      "name": "mixed_9_tower_1_conv_conv2d", 
      "attrs": {
        "kernel": "(1, 1)", 
        "no_bias": "True", 
        "num_filter": "448", 
        "pad": "(0, 0)", 
        "stride": "(1, 1)"
      }, 
      "inputs": [[633, 0, 0], [666, 0, 0]]
    }, 
    {
      "op": "null", 
      "name": "mixed_9_tower_1_conv_batchnorm_gamma", 
      "attrs": {"fix_gamma": "True"}, 
      "inputs": []
    }, 
    {
      "op": "null", 
      "name": "mixed_9_tower_1_conv_batchnorm_beta", 
      "attrs": {"fix_gamma": "True"}, 
      "inputs": []
    }, 
    {
      "op": "null", 
      "name": "mixed_9_tower_1_conv_batchnorm_moving_mean", 
      "attrs": {
        "__init__": "[\"zero\", {}]", 
        "fix_gamma": "True"
      }, 
      "inputs": []
    }, 
    {
      "op": "null", 
      "name": "mixed_9_tower_1_conv_batchnorm_moving_var", 
      "attrs": {
        "__init__": "[\"one\", {}]", 
        "fix_gamma": "True"
      }, 
      "inputs": []
    }, 
    {
      "op": "BatchNorm", 
      "name": "mixed_9_tower_1_conv_batchnorm", 
      "attrs": {"fix_gamma": "True"}, 
      "inputs": [[667, 0, 0], [668, 0, 0], [669, 0, 0], [670, 0, 1], [671, 0, 1]]
    }, 
    {
      "op": "Activation", 
      "name": "mixed_9_tower_1_conv_relu", 
      "attrs": {"act_type": "relu"}, 
      "inputs": [[672, 0, 0]]
    }, 
    {
      "op": "null", 
      "name": "mixed_9_tower_1_conv_1_conv2d_weight", 
      "attrs": {
        "kernel": "(3, 3)", 
        "no_bias": "True", 
        "num_filter": "384", 
        "pad": "(1, 1)", 
        "stride": "(1, 1)"
      }, 
      "inputs": []
    }, 
    {
      "op": "Convolution", 
      "name": "mixed_9_tower_1_conv_1_conv2d", 
      "attrs": {
        "kernel": "(3, 3)", 
        "no_bias": "True", 
        "num_filter": "384", 
        "pad": "(1, 1)", 
        "stride": "(1, 1)"
      }, 
      "inputs": [[673, 0, 0], [674, 0, 0]]
    }, 
    {
      "op": "null", 
      "name": "mixed_9_tower_1_conv_1_batchnorm_gamma", 
      "attrs": {"fix_gamma": "True"}, 
      "inputs": []
    }, 
    {
      "op": "null", 
      "name": "mixed_9_tower_1_conv_1_batchnorm_beta", 
      "attrs": {"fix_gamma": "True"}, 
      "inputs": []
    }, 
    {
      "op": "null", 
      "name": "mixed_9_tower_1_conv_1_batchnorm_moving_mean", 
      "attrs": {
        "__init__": "[\"zero\", {}]", 
        "fix_gamma": "True"
      }, 
      "inputs": []
    }, 
    {
      "op": "null", 
      "name": "mixed_9_tower_1_conv_1_batchnorm_moving_var", 
      "attrs": {
        "__init__": "[\"one\", {}]", 
        "fix_gamma": "True"
      }, 
      "inputs": []
    }, 
    {
      "op": "BatchNorm", 
      "name": "mixed_9_tower_1_conv_1_batchnorm", 
      "attrs": {"fix_gamma": "True"}, 
      "inputs": [[675, 0, 0], [676, 0, 0], [677, 0, 0], [678, 0, 1], [679, 0, 1]]
    }, 
    {
      "op": "Activation", 
      "name": "mixed_9_tower_1_conv_1_relu", 
      "attrs": {"act_type": "relu"}, 
      "inputs": [[680, 0, 0]]
    }, 
    {
      "op": "null", 
      "name": "mixed_9_tower_1_mixed_conv_conv2d_weight", 
      "attrs": {
        "kernel": "(1, 3)", 
        "no_bias": "True", 
        "num_filter": "384", 
        "pad": "(0, 1)", 
        "stride": "(1, 1)"
      }, 
      "inputs": []
    }, 
    {
      "op": "Convolution", 
      "name": "mixed_9_tower_1_mixed_conv_conv2d", 
      "attrs": {
        "kernel": "(1, 3)", 
        "no_bias": "True", 
        "num_filter": "384", 
        "pad": "(0, 1)", 
        "stride": "(1, 1)"
      }, 
      "inputs": [[681, 0, 0], [682, 0, 0]]
    }, 
    {
      "op": "null", 
      "name": "mixed_9_tower_1_mixed_conv_batchnorm_gamma", 
      "attrs": {"fix_gamma": "True"}, 
      "inputs": []
    }, 
    {
      "op": "null", 
      "name": "mixed_9_tower_1_mixed_conv_batchnorm_beta", 
      "attrs": {"fix_gamma": "True"}, 
      "inputs": []
    }, 
    {
      "op": "null", 
      "name": "mixed_9_tower_1_mixed_conv_batchnorm_moving_mean", 
      "attrs": {
        "__init__": "[\"zero\", {}]", 
        "fix_gamma": "True"
      }, 
      "inputs": []
    }, 
    {
      "op": "null", 
      "name": "mixed_9_tower_1_mixed_conv_batchnorm_moving_var", 
      "attrs": {
        "__init__": "[\"one\", {}]", 
        "fix_gamma": "True"
      }, 
      "inputs": []
    }, 
    {
      "op": "BatchNorm", 
      "name": "mixed_9_tower_1_mixed_conv_batchnorm", 
      "attrs": {"fix_gamma": "True"}, 
      "inputs": [[683, 0, 0], [684, 0, 0], [685, 0, 0], [686, 0, 1], [687, 0, 1]]
    }, 
    {
      "op": "Activation", 
      "name": "mixed_9_tower_1_mixed_conv_relu", 
      "attrs": {"act_type": "relu"}, 
      "inputs": [[688, 0, 0]]
    }, 
    {
      "op": "null", 
      "name": "mixed_9_tower_1_mixed_conv_1_conv2d_weight", 
      "attrs": {
        "kernel": "(3, 1)", 
        "no_bias": "True", 
        "num_filter": "384", 
        "pad": "(1, 0)", 
        "stride": "(1, 1)"
      }, 
      "inputs": []
    }, 
    {
      "op": "Convolution", 
      "name": "mixed_9_tower_1_mixed_conv_1_conv2d", 
      "attrs": {
        "kernel": "(3, 1)", 
        "no_bias": "True", 
        "num_filter": "384", 
        "pad": "(1, 0)", 
        "stride": "(1, 1)"
      }, 
      "inputs": [[681, 0, 0], [690, 0, 0]]
    }, 
    {
      "op": "null", 
      "name": "mixed_9_tower_1_mixed_conv_1_batchnorm_gamma", 
      "attrs": {"fix_gamma": "True"}, 
      "inputs": []
    }, 
    {
      "op": "null", 
      "name": "mixed_9_tower_1_mixed_conv_1_batchnorm_beta", 
      "attrs": {"fix_gamma": "True"}, 
      "inputs": []
    }, 
    {
      "op": "null", 
      "name": "mixed_9_tower_1_mixed_conv_1_batchnorm_moving_mean", 
      "attrs": {
        "__init__": "[\"zero\", {}]", 
        "fix_gamma": "True"
      }, 
      "inputs": []
    }, 
    {
      "op": "null", 
      "name": "mixed_9_tower_1_mixed_conv_1_batchnorm_moving_var", 
      "attrs": {
        "__init__": "[\"one\", {}]", 
        "fix_gamma": "True"
      }, 
      "inputs": []
    }, 
    {
      "op": "BatchNorm", 
      "name": "mixed_9_tower_1_mixed_conv_1_batchnorm", 
      "attrs": {"fix_gamma": "True"}, 
      "inputs": [[691, 0, 0], [692, 0, 0], [693, 0, 0], [694, 0, 1], [695, 0, 1]]
    }, 
    {
      "op": "Activation", 
      "name": "mixed_9_tower_1_mixed_conv_1_relu", 
      "attrs": {"act_type": "relu"}, 
      "inputs": [[696, 0, 0]]
    }, 
    {
      "op": "Pooling", 
      "name": "avg_pool_mixed_9_pool", 
      "attrs": {
        "kernel": "(3, 3)", 
        "pad": "(1, 1)", 
        "pool_type": "avg", 
        "stride": "(1, 1)"
      }, 
      "inputs": [[633, 0, 0]]
    }, 
    {
      "op": "null", 
      "name": "mixed_9_tower_2_conv_conv2d_weight", 
      "attrs": {
        "kernel": "(1, 1)", 
        "no_bias": "True", 
        "num_filter": "192", 
        "pad": "(0, 0)", 
        "stride": "(1, 1)"
      }, 
      "inputs": []
    }, 
    {
      "op": "Convolution", 
      "name": "mixed_9_tower_2_conv_conv2d", 
      "attrs": {
        "kernel": "(1, 1)", 
        "no_bias": "True", 
        "num_filter": "192", 
        "pad": "(0, 0)", 
        "stride": "(1, 1)"
      }, 
      "inputs": [[698, 0, 0], [699, 0, 0]]
    }, 
    {
      "op": "null", 
      "name": "mixed_9_tower_2_conv_batchnorm_gamma", 
      "attrs": {"fix_gamma": "True"}, 
      "inputs": []
    }, 
    {
      "op": "null", 
      "name": "mixed_9_tower_2_conv_batchnorm_beta", 
      "attrs": {"fix_gamma": "True"}, 
      "inputs": []
    }, 
    {
      "op": "null", 
      "name": "mixed_9_tower_2_conv_batchnorm_moving_mean", 
      "attrs": {
        "__init__": "[\"zero\", {}]", 
        "fix_gamma": "True"
      }, 
      "inputs": []
    }, 
    {
      "op": "null", 
      "name": "mixed_9_tower_2_conv_batchnorm_moving_var", 
      "attrs": {
        "__init__": "[\"one\", {}]", 
        "fix_gamma": "True"
      }, 
      "inputs": []
    }, 
    {
      "op": "BatchNorm", 
      "name": "mixed_9_tower_2_conv_batchnorm", 
      "attrs": {"fix_gamma": "True"}, 
      "inputs": [[700, 0, 0], [701, 0, 0], [702, 0, 0], [703, 0, 1], [704, 0, 1]]
    }, 
    {
      "op": "Activation", 
      "name": "mixed_9_tower_2_conv_relu", 
      "attrs": {"act_type": "relu"}, 
      "inputs": [[705, 0, 0]]
    }, 
    {
      "op": "Concat", 
      "name": "ch_concat_mixed_9_chconcat", 
      "attrs": {"num_args": "6"}, 
      "inputs": [[641, 0, 0], [657, 0, 0], [665, 0, 0], [689, 0, 0], [697, 0, 0], [706, 0, 0]]
    }, 
    {
      "op": "null", 
      "name": "mixed_10_conv_conv2d_weight", 
      "attrs": {
        "kernel": "(1, 1)", 
        "no_bias": "True", 
        "num_filter": "320", 
        "pad": "(0, 0)", 
        "stride": "(1, 1)"
      }, 
      "inputs": []
    }, 
    {
      "op": "Convolution", 
      "name": "mixed_10_conv_conv2d", 
      "attrs": {
        "kernel": "(1, 1)", 
        "no_bias": "True", 
        "num_filter": "320", 
        "pad": "(0, 0)", 
        "stride": "(1, 1)"
      }, 
      "inputs": [[707, 0, 0], [708, 0, 0]]
    }, 
    {
      "op": "null", 
      "name": "mixed_10_conv_batchnorm_gamma", 
      "attrs": {"fix_gamma": "True"}, 
      "inputs": []
    }, 
    {
      "op": "null", 
      "name": "mixed_10_conv_batchnorm_beta", 
      "attrs": {"fix_gamma": "True"}, 
      "inputs": []
    }, 
    {
      "op": "null", 
      "name": "mixed_10_conv_batchnorm_moving_mean", 
      "attrs": {
        "__init__": "[\"zero\", {}]", 
        "fix_gamma": "True"
      }, 
      "inputs": []
    }, 
    {
      "op": "null", 
      "name": "mixed_10_conv_batchnorm_moving_var", 
      "attrs": {
        "__init__": "[\"one\", {}]", 
        "fix_gamma": "True"
      }, 
      "inputs": []
    }, 
    {
      "op": "BatchNorm", 
      "name": "mixed_10_conv_batchnorm", 
      "attrs": {"fix_gamma": "True"}, 
      "inputs": [[709, 0, 0], [710, 0, 0], [711, 0, 0], [712, 0, 1], [713, 0, 1]]
    }, 
    {
      "op": "Activation", 
      "name": "mixed_10_conv_relu", 
      "attrs": {"act_type": "relu"}, 
      "inputs": [[714, 0, 0]]
    }, 
    {
      "op": "null", 
      "name": "mixed_10_tower_conv_conv2d_weight", 
      "attrs": {
        "kernel": "(1, 1)", 
        "no_bias": "True", 
        "num_filter": "384", 
        "pad": "(0, 0)", 
        "stride": "(1, 1)"
      }, 
      "inputs": []
    }, 
    {
      "op": "Convolution", 
      "name": "mixed_10_tower_conv_conv2d", 
      "attrs": {
        "kernel": "(1, 1)", 
        "no_bias": "True", 
        "num_filter": "384", 
        "pad": "(0, 0)", 
        "stride": "(1, 1)"
      }, 
      "inputs": [[707, 0, 0], [716, 0, 0]]
    }, 
    {
      "op": "null", 
      "name": "mixed_10_tower_conv_batchnorm_gamma", 
      "attrs": {"fix_gamma": "True"}, 
      "inputs": []
    }, 
    {
      "op": "null", 
      "name": "mixed_10_tower_conv_batchnorm_beta", 
      "attrs": {"fix_gamma": "True"}, 
      "inputs": []
    }, 
    {
      "op": "null", 
      "name": "mixed_10_tower_conv_batchnorm_moving_mean", 
      "attrs": {
        "__init__": "[\"zero\", {}]", 
        "fix_gamma": "True"
      }, 
      "inputs": []
    }, 
    {
      "op": "null", 
      "name": "mixed_10_tower_conv_batchnorm_moving_var", 
      "attrs": {
        "__init__": "[\"one\", {}]", 
        "fix_gamma": "True"
      }, 
      "inputs": []
    }, 
    {
      "op": "BatchNorm", 
      "name": "mixed_10_tower_conv_batchnorm", 
      "attrs": {"fix_gamma": "True"}, 
      "inputs": [[717, 0, 0], [718, 0, 0], [719, 0, 0], [720, 0, 1], [721, 0, 1]]
    }, 
    {
      "op": "Activation", 
      "name": "mixed_10_tower_conv_relu", 
      "attrs": {"act_type": "relu"}, 
      "inputs": [[722, 0, 0]]
    }, 
    {
      "op": "null", 
      "name": "mixed_10_tower_mixed_conv_conv2d_weight", 
      "attrs": {
        "kernel": "(1, 3)", 
        "no_bias": "True", 
        "num_filter": "384", 
        "pad": "(0, 1)", 
        "stride": "(1, 1)"
      }, 
      "inputs": []
    }, 
    {
      "op": "Convolution", 
      "name": "mixed_10_tower_mixed_conv_conv2d", 
      "attrs": {
        "kernel": "(1, 3)", 
        "no_bias": "True", 
        "num_filter": "384", 
        "pad": "(0, 1)", 
        "stride": "(1, 1)"
      }, 
      "inputs": [[723, 0, 0], [724, 0, 0]]
    }, 
    {
      "op": "null", 
      "name": "mixed_10_tower_mixed_conv_batchnorm_gamma", 
      "attrs": {"fix_gamma": "True"}, 
      "inputs": []
    }, 
    {
      "op": "null", 
      "name": "mixed_10_tower_mixed_conv_batchnorm_beta", 
      "attrs": {"fix_gamma": "True"}, 
      "inputs": []
    }, 
    {
      "op": "null", 
      "name": "mixed_10_tower_mixed_conv_batchnorm_moving_mean", 
      "attrs": {
        "__init__": "[\"zero\", {}]", 
        "fix_gamma": "True"
      }, 
      "inputs": []
    }, 
    {
      "op": "null", 
      "name": "mixed_10_tower_mixed_conv_batchnorm_moving_var", 
      "attrs": {
        "__init__": "[\"one\", {}]", 
        "fix_gamma": "True"
      }, 
      "inputs": []
    }, 
    {
      "op": "BatchNorm", 
      "name": "mixed_10_tower_mixed_conv_batchnorm", 
      "attrs": {"fix_gamma": "True"}, 
      "inputs": [[725, 0, 0], [726, 0, 0], [727, 0, 0], [728, 0, 1], [729, 0, 1]]
    }, 
    {
      "op": "Activation", 
      "name": "mixed_10_tower_mixed_conv_relu", 
      "attrs": {"act_type": "relu"}, 
      "inputs": [[730, 0, 0]]
    }, 
    {
      "op": "null", 
      "name": "mixed_10_tower_mixed_conv_1_conv2d_weight", 
      "attrs": {
        "kernel": "(3, 1)", 
        "no_bias": "True", 
        "num_filter": "384", 
        "pad": "(1, 0)", 
        "stride": "(1, 1)"
      }, 
      "inputs": []
    }, 
    {
      "op": "Convolution", 
      "name": "mixed_10_tower_mixed_conv_1_conv2d", 
      "attrs": {
        "kernel": "(3, 1)", 
        "no_bias": "True", 
        "num_filter": "384", 
        "pad": "(1, 0)", 
        "stride": "(1, 1)"
      }, 
      "inputs": [[723, 0, 0], [732, 0, 0]]
    }, 
    {
      "op": "null", 
      "name": "mixed_10_tower_mixed_conv_1_batchnorm_gamma", 
      "attrs": {"fix_gamma": "True"}, 
      "inputs": []
    }, 
    {
      "op": "null", 
      "name": "mixed_10_tower_mixed_conv_1_batchnorm_beta", 
      "attrs": {"fix_gamma": "True"}, 
      "inputs": []
    }, 
    {
      "op": "null", 
      "name": "mixed_10_tower_mixed_conv_1_batchnorm_moving_mean", 
      "attrs": {
        "__init__": "[\"zero\", {}]", 
        "fix_gamma": "True"
      }, 
      "inputs": []
    }, 
    {
      "op": "null", 
      "name": "mixed_10_tower_mixed_conv_1_batchnorm_moving_var", 
      "attrs": {
        "__init__": "[\"one\", {}]", 
        "fix_gamma": "True"
      }, 
      "inputs": []
    }, 
    {
      "op": "BatchNorm", 
      "name": "mixed_10_tower_mixed_conv_1_batchnorm", 
      "attrs": {"fix_gamma": "True"}, 
      "inputs": [[733, 0, 0], [734, 0, 0], [735, 0, 0], [736, 0, 1], [737, 0, 1]]
    }, 
    {
      "op": "Activation", 
      "name": "mixed_10_tower_mixed_conv_1_relu", 
      "attrs": {"act_type": "relu"}, 
      "inputs": [[738, 0, 0]]
    }, 
    {
      "op": "null", 
      "name": "mixed_10_tower_1_conv_conv2d_weight", 
      "attrs": {
        "kernel": "(1, 1)", 
        "no_bias": "True", 
        "num_filter": "448", 
        "pad": "(0, 0)", 
        "stride": "(1, 1)"
      }, 
      "inputs": []
    }, 
    {
      "op": "Convolution", 
      "name": "mixed_10_tower_1_conv_conv2d", 
      "attrs": {
        "kernel": "(1, 1)", 
        "no_bias": "True", 
        "num_filter": "448", 
        "pad": "(0, 0)", 
        "stride": "(1, 1)"
      }, 
      "inputs": [[707, 0, 0], [740, 0, 0]]
    }, 
    {
      "op": "null", 
      "name": "mixed_10_tower_1_conv_batchnorm_gamma", 
      "attrs": {"fix_gamma": "True"}, 
      "inputs": []
    }, 
    {
      "op": "null", 
      "name": "mixed_10_tower_1_conv_batchnorm_beta", 
      "attrs": {"fix_gamma": "True"}, 
      "inputs": []
    }, 
    {
      "op": "null", 
      "name": "mixed_10_tower_1_conv_batchnorm_moving_mean", 
      "attrs": {
        "__init__": "[\"zero\", {}]", 
        "fix_gamma": "True"
      }, 
      "inputs": []
    }, 
    {
      "op": "null", 
      "name": "mixed_10_tower_1_conv_batchnorm_moving_var", 
      "attrs": {
        "__init__": "[\"one\", {}]", 
        "fix_gamma": "True"
      }, 
      "inputs": []
    }, 
    {
      "op": "BatchNorm", 
      "name": "mixed_10_tower_1_conv_batchnorm", 
      "attrs": {"fix_gamma": "True"}, 
      "inputs": [[741, 0, 0], [742, 0, 0], [743, 0, 0], [744, 0, 1], [745, 0, 1]]
    }, 
    {
      "op": "Activation", 
      "name": "mixed_10_tower_1_conv_relu", 
      "attrs": {"act_type": "relu"}, 
      "inputs": [[746, 0, 0]]
    }, 
    {
      "op": "null", 
      "name": "mixed_10_tower_1_conv_1_conv2d_weight", 
      "attrs": {
        "kernel": "(3, 3)", 
        "no_bias": "True", 
        "num_filter": "384", 
        "pad": "(1, 1)", 
        "stride": "(1, 1)"
      }, 
      "inputs": []
    }, 
    {
      "op": "Convolution", 
      "name": "mixed_10_tower_1_conv_1_conv2d", 
      "attrs": {
        "kernel": "(3, 3)", 
        "no_bias": "True", 
        "num_filter": "384", 
        "pad": "(1, 1)", 
        "stride": "(1, 1)"
      }, 
      "inputs": [[747, 0, 0], [748, 0, 0]]
    }, 
    {
      "op": "null", 
      "name": "mixed_10_tower_1_conv_1_batchnorm_gamma", 
      "attrs": {"fix_gamma": "True"}, 
      "inputs": []
    }, 
    {
      "op": "null", 
      "name": "mixed_10_tower_1_conv_1_batchnorm_beta", 
      "attrs": {"fix_gamma": "True"}, 
      "inputs": []
    }, 
    {
      "op": "null", 
      "name": "mixed_10_tower_1_conv_1_batchnorm_moving_mean", 
      "attrs": {
        "__init__": "[\"zero\", {}]", 
        "fix_gamma": "True"
      }, 
      "inputs": []
    }, 
    {
      "op": "null", 
      "name": "mixed_10_tower_1_conv_1_batchnorm_moving_var", 
      "attrs": {
        "__init__": "[\"one\", {}]", 
        "fix_gamma": "True"
      }, 
      "inputs": []
    }, 
    {
      "op": "BatchNorm", 
      "name": "mixed_10_tower_1_conv_1_batchnorm", 
      "attrs": {"fix_gamma": "True"}, 
      "inputs": [[749, 0, 0], [750, 0, 0], [751, 0, 0], [752, 0, 1], [753, 0, 1]]
    }, 
    {
      "op": "Activation", 
      "name": "mixed_10_tower_1_conv_1_relu", 
      "attrs": {"act_type": "relu"}, 
      "inputs": [[754, 0, 0]]
    }, 
    {
      "op": "null", 
      "name": "mixed_10_tower_1_mixed_conv_conv2d_weight", 
      "attrs": {
        "kernel": "(1, 3)", 
        "no_bias": "True", 
        "num_filter": "384", 
        "pad": "(0, 1)", 
        "stride": "(1, 1)"
      }, 
      "inputs": []
    }, 
    {
      "op": "Convolution", 
      "name": "mixed_10_tower_1_mixed_conv_conv2d", 
      "attrs": {
        "kernel": "(1, 3)", 
        "no_bias": "True", 
        "num_filter": "384", 
        "pad": "(0, 1)", 
        "stride": "(1, 1)"
      }, 
      "inputs": [[755, 0, 0], [756, 0, 0]]
    }, 
    {
      "op": "null", 
      "name": "mixed_10_tower_1_mixed_conv_batchnorm_gamma", 
      "attrs": {"fix_gamma": "True"}, 
      "inputs": []
    }, 
    {
      "op": "null", 
      "name": "mixed_10_tower_1_mixed_conv_batchnorm_beta", 
      "attrs": {"fix_gamma": "True"}, 
      "inputs": []
    }, 
    {
      "op": "null", 
      "name": "mixed_10_tower_1_mixed_conv_batchnorm_moving_mean", 
      "attrs": {
        "__init__": "[\"zero\", {}]", 
        "fix_gamma": "True"
      }, 
      "inputs": []
    }, 
    {
      "op": "null", 
      "name": "mixed_10_tower_1_mixed_conv_batchnorm_moving_var", 
      "attrs": {
        "__init__": "[\"one\", {}]", 
        "fix_gamma": "True"
      }, 
      "inputs": []
    }, 
    {
      "op": "BatchNorm", 
      "name": "mixed_10_tower_1_mixed_conv_batchnorm", 
      "attrs": {"fix_gamma": "True"}, 
      "inputs": [[757, 0, 0], [758, 0, 0], [759, 0, 0], [760, 0, 1], [761, 0, 1]]
    }, 
    {
      "op": "Activation", 
      "name": "mixed_10_tower_1_mixed_conv_relu", 
      "attrs": {"act_type": "relu"}, 
      "inputs": [[762, 0, 0]]
    }, 
    {
      "op": "null", 
      "name": "mixed_10_tower_1_mixed_conv_1_conv2d_weight", 
      "attrs": {
        "kernel": "(3, 1)", 
        "no_bias": "True", 
        "num_filter": "384", 
        "pad": "(1, 0)", 
        "stride": "(1, 1)"
      }, 
      "inputs": []
    }, 
    {
      "op": "Convolution", 
      "name": "mixed_10_tower_1_mixed_conv_1_conv2d", 
      "attrs": {
        "kernel": "(3, 1)", 
        "no_bias": "True", 
        "num_filter": "384", 
        "pad": "(1, 0)", 
        "stride": "(1, 1)"
      }, 
      "inputs": [[755, 0, 0], [764, 0, 0]]
    }, 
    {
      "op": "null", 
      "name": "mixed_10_tower_1_mixed_conv_1_batchnorm_gamma", 
      "attrs": {"fix_gamma": "True"}, 
      "inputs": []
    }, 
    {
      "op": "null", 
      "name": "mixed_10_tower_1_mixed_conv_1_batchnorm_beta", 
      "attrs": {"fix_gamma": "True"}, 
      "inputs": []
    }, 
    {
      "op": "null", 
      "name": "mixed_10_tower_1_mixed_conv_1_batchnorm_moving_mean", 
      "attrs": {
        "__init__": "[\"zero\", {}]", 
        "fix_gamma": "True"
      }, 
      "inputs": []
    }, 
    {
      "op": "null", 
      "name": "mixed_10_tower_1_mixed_conv_1_batchnorm_moving_var", 
      "attrs": {
        "__init__": "[\"one\", {}]", 
        "fix_gamma": "True"
      }, 
      "inputs": []
    }, 
    {
      "op": "BatchNorm", 
      "name": "mixed_10_tower_1_mixed_conv_1_batchnorm", 
      "attrs": {"fix_gamma": "True"}, 
      "inputs": [[765, 0, 0], [766, 0, 0], [767, 0, 0], [768, 0, 1], [769, 0, 1]]
    }, 
    {
      "op": "Activation", 
      "name": "mixed_10_tower_1_mixed_conv_1_relu", 
      "attrs": {"act_type": "relu"}, 
      "inputs": [[770, 0, 0]]
    }, 
    {
      "op": "Pooling", 
      "name": "max_pool_mixed_10_pool", 
      "attrs": {
        "kernel": "(3, 3)", 
        "pad": "(1, 1)", 
        "pool_type": "max", 
        "stride": "(1, 1)"
      }, 
      "inputs": [[707, 0, 0]]
    }, 
    {
      "op": "null", 
      "name": "mixed_10_tower_2_conv_conv2d_weight", 
      "attrs": {
        "kernel": "(1, 1)", 
        "no_bias": "True", 
        "num_filter": "192", 
        "pad": "(0, 0)", 
        "stride": "(1, 1)"
      }, 
      "inputs": []
    }, 
    {
      "op": "Convolution", 
      "name": "mixed_10_tower_2_conv_conv2d", 
      "attrs": {
        "kernel": "(1, 1)", 
        "no_bias": "True", 
        "num_filter": "192", 
        "pad": "(0, 0)", 
        "stride": "(1, 1)"
      }, 
      "inputs": [[772, 0, 0], [773, 0, 0]]
    }, 
    {
      "op": "null", 
      "name": "mixed_10_tower_2_conv_batchnorm_gamma", 
      "attrs": {"fix_gamma": "True"}, 
      "inputs": []
    }, 
    {
      "op": "null", 
      "name": "mixed_10_tower_2_conv_batchnorm_beta", 
      "attrs": {"fix_gamma": "True"}, 
      "inputs": []
    }, 
    {
      "op": "null", 
      "name": "mixed_10_tower_2_conv_batchnorm_moving_mean", 
      "attrs": {
        "__init__": "[\"zero\", {}]", 
        "fix_gamma": "True"
      }, 
      "inputs": []
    }, 
    {
      "op": "null", 
      "name": "mixed_10_tower_2_conv_batchnorm_moving_var", 
      "attrs": {
        "__init__": "[\"one\", {}]", 
        "fix_gamma": "True"
      }, 
      "inputs": []
    }, 
    {
      "op": "BatchNorm", 
      "name": "mixed_10_tower_2_conv_batchnorm", 
      "attrs": {"fix_gamma": "True"}, 
      "inputs": [[774, 0, 0], [775, 0, 0], [776, 0, 0], [777, 0, 1], [778, 0, 1]]
    }, 
    {
      "op": "Activation", 
      "name": "mixed_10_tower_2_conv_relu", 
      "attrs": {"act_type": "relu"}, 
      "inputs": [[779, 0, 0]]
    }, 
    {
      "op": "Concat", 
      "name": "ch_concat_mixed_10_chconcat", 
      "attrs": {"num_args": "6"}, 
      "inputs": [[715, 0, 0], [731, 0, 0], [739, 0, 0], [763, 0, 0], [771, 0, 0], [780, 0, 0]]
    }, 
    {
      "op": "null", 
      "name": "ch_concat_mixed_10_chconcat_cls_pred_conv_weight", 
      "attrs": {
        "kernel": "(3, 3)", 
        "num_filter": "126", 
        "pad": "(1, 1)", 
        "stride": "(1, 1)"
      }, 
      "inputs": []
    }, 
    {
      "op": "null", 
      "name": "ch_concat_mixed_10_chconcat_cls_pred_conv_bias", 
      "attrs": {
        "__init__": "[\"constant\", {\"value\": 0.0}]", 
        "__lr_mult__": "2.0"
      }, 
      "inputs": []
    }, 
    {
      "op": "Convolution", 
      "name": "ch_concat_mixed_10_chconcat_cls_pred_conv", 
      "attrs": {
        "kernel": "(3, 3)", 
        "num_filter": "126", 
        "pad": "(1, 1)", 
        "stride": "(1, 1)"
      }, 
      "inputs": [[781, 0, 0], [782, 0, 0], [783, 0, 0]]
    }, 
    {
      "op": "transpose", 
      "name": "transpose3", 
      "attrs": {"axes": "(0, 2, 3, 1)"}, 
      "inputs": [[784, 0, 0]]
    }, 
    {
      "op": "Flatten", 
      "name": "flatten4", 
      "inputs": [[785, 0, 0]]
    }, 
    {
      "op": "null", 
      "name": "multi_feat_2_conv_1x1_conv_weight", 
      "attrs": {
        "kernel": "(1, 1)", 
        "num_filter": "256", 
        "pad": "(0, 0)", 
        "stride": "(1, 1)"
      }, 
      "inputs": []
    }, 
    {
      "op": "null", 
      "name": "multi_feat_2_conv_1x1_conv_bias", 
      "attrs": {
        "__init__": "[\"constant\", {\"value\": 0.0}]", 
        "__lr_mult__": "2.0"
      }, 
      "inputs": []
    }, 
    {
      "op": "Convolution", 
      "name": "multi_feat_2_conv_1x1_conv", 
      "attrs": {
        "kernel": "(1, 1)", 
        "num_filter": "256", 
        "pad": "(0, 0)", 
        "stride": "(1, 1)"
      }, 
      "inputs": [[781, 0, 0], [787, 0, 0], [788, 0, 0]]
    }, 
    {
      "op": "Activation", 
      "name": "multi_feat_2_conv_1x1_relu", 
      "attrs": {"act_type": "relu"}, 
      "inputs": [[789, 0, 0]]
    }, 
    {
      "op": "null", 
      "name": "multi_feat_2_conv_3x3_conv_weight", 
      "attrs": {
        "kernel": "(3, 3)", 
        "num_filter": "512", 
        "pad": "(1, 1)", 
        "stride": "(2, 2)"
      }, 
      "inputs": []
    }, 
    {
      "op": "null", 
      "name": "multi_feat_2_conv_3x3_conv_bias", 
      "attrs": {
        "__init__": "[\"constant\", {\"value\": 0.0}]", 
        "__lr_mult__": "2.0"
      }, 
      "inputs": []
    }, 
    {
      "op": "Convolution", 
      "name": "multi_feat_2_conv_3x3_conv", 
      "attrs": {
        "kernel": "(3, 3)", 
        "num_filter": "512", 
        "pad": "(1, 1)", 
        "stride": "(2, 2)"
      }, 
      "inputs": [[790, 0, 0], [791, 0, 0], [792, 0, 0]]
    }, 
    {
      "op": "Activation", 
      "name": "multi_feat_2_conv_3x3_relu", 
      "attrs": {"act_type": "relu"}, 
      "inputs": [[793, 0, 0]]
    }, 
    {
      "op": "null", 
      "name": "multi_feat_2_conv_3x3_relu_cls_pred_conv_weight", 
      "attrs": {
        "kernel": "(3, 3)", 
        "num_filter": "126", 
        "pad": "(1, 1)", 
        "stride": "(1, 1)"
      }, 
      "inputs": []
    }, 
    {
      "op": "null", 
      "name": "multi_feat_2_conv_3x3_relu_cls_pred_conv_bias", 
      "attrs": {
        "__init__": "[\"constant\", {\"value\": 0.0}]", 
        "__lr_mult__": "2.0"
      }, 
      "inputs": []
    }, 
    {
      "op": "Convolution", 
      "name": "multi_feat_2_conv_3x3_relu_cls_pred_conv", 
      "attrs": {
        "kernel": "(3, 3)", 
        "num_filter": "126", 
        "pad": "(1, 1)", 
        "stride": "(1, 1)"
      }, 
      "inputs": [[794, 0, 0], [795, 0, 0], [796, 0, 0]]
    }, 
    {
      "op": "transpose", 
      "name": "transpose5", 
      "attrs": {"axes": "(0, 2, 3, 1)"}, 
      "inputs": [[797, 0, 0]]
    }, 
    {
      "op": "Flatten", 
      "name": "flatten7", 
      "inputs": [[798, 0, 0]]
    }, 
    {
      "op": "null", 
      "name": "multi_feat_3_conv_1x1_conv_weight", 
      "attrs": {
        "kernel": "(1, 1)", 
        "num_filter": "128", 
        "pad": "(0, 0)", 
        "stride": "(1, 1)"
      }, 
      "inputs": []
    }, 
    {
      "op": "null", 
      "name": "multi_feat_3_conv_1x1_conv_bias", 
      "attrs": {
        "__init__": "[\"constant\", {\"value\": 0.0}]", 
        "__lr_mult__": "2.0"
      }, 
      "inputs": []
    }, 
    {
      "op": "Convolution", 
      "name": "multi_feat_3_conv_1x1_conv", 
      "attrs": {
        "kernel": "(1, 1)", 
        "num_filter": "128", 
        "pad": "(0, 0)", 
        "stride": "(1, 1)"
      }, 
      "inputs": [[794, 0, 0], [800, 0, 0], [801, 0, 0]]
    }, 
    {
      "op": "Activation", 
      "name": "multi_feat_3_conv_1x1_relu", 
      "attrs": {"act_type": "relu"}, 
      "inputs": [[802, 0, 0]]
    }, 
    {
      "op": "null", 
      "name": "multi_feat_3_conv_3x3_conv_weight", 
      "attrs": {
        "kernel": "(3, 3)", 
        "num_filter": "256", 
        "pad": "(1, 1)", 
        "stride": "(2, 2)"
      }, 
      "inputs": []
    }, 
    {
      "op": "null", 
      "name": "multi_feat_3_conv_3x3_conv_bias", 
      "attrs": {
        "__init__": "[\"constant\", {\"value\": 0.0}]", 
        "__lr_mult__": "2.0"
      }, 
      "inputs": []
    }, 
    {
      "op": "Convolution", 
      "name": "multi_feat_3_conv_3x3_conv", 
      "attrs": {
        "kernel": "(3, 3)", 
        "num_filter": "256", 
        "pad": "(1, 1)", 
        "stride": "(2, 2)"
      }, 
      "inputs": [[803, 0, 0], [804, 0, 0], [805, 0, 0]]
    }, 
    {
      "op": "Activation", 
      "name": "multi_feat_3_conv_3x3_relu", 
      "attrs": {"act_type": "relu"}, 
      "inputs": [[806, 0, 0]]
    }, 
    {
      "op": "null", 
      "name": "multi_feat_3_conv_3x3_relu_cls_pred_conv_weight", 
      "attrs": {
        "kernel": "(3, 3)", 
        "num_filter": "126", 
        "pad": "(1, 1)", 
        "stride": "(1, 1)"
      }, 
      "inputs": []
    }, 
    {
      "op": "null", 
      "name": "multi_feat_3_conv_3x3_relu_cls_pred_conv_bias", 
      "attrs": {
        "__init__": "[\"constant\", {\"value\": 0.0}]", 
        "__lr_mult__": "2.0"
      }, 
      "inputs": []
    }, 
    {
      "op": "Convolution", 
      "name": "multi_feat_3_conv_3x3_relu_cls_pred_conv", 
      "attrs": {
        "kernel": "(3, 3)", 
        "num_filter": "126", 
        "pad": "(1, 1)", 
        "stride": "(1, 1)"
      }, 
      "inputs": [[807, 0, 0], [808, 0, 0], [809, 0, 0]]
    }, 
    {
      "op": "transpose", 
      "name": "transpose7", 
      "attrs": {"axes": "(0, 2, 3, 1)"}, 
      "inputs": [[810, 0, 0]]
    }, 
    {
      "op": "Flatten", 
      "name": "flatten10", 
      "inputs": [[811, 0, 0]]
    }, 
    {
      "op": "null", 
      "name": "multi_feat_4_conv_1x1_conv_weight", 
      "attrs": {
        "kernel": "(1, 1)", 
        "num_filter": "128", 
        "pad": "(0, 0)", 
        "stride": "(1, 1)"
      }, 
      "inputs": []
    }, 
    {
      "op": "null", 
      "name": "multi_feat_4_conv_1x1_conv_bias", 
      "attrs": {
        "__init__": "[\"constant\", {\"value\": 0.0}]", 
        "__lr_mult__": "2.0"
      }, 
      "inputs": []
    }, 
    {
      "op": "Convolution", 
      "name": "multi_feat_4_conv_1x1_conv", 
      "attrs": {
        "kernel": "(1, 1)", 
        "num_filter": "128", 
        "pad": "(0, 0)", 
        "stride": "(1, 1)"
      }, 
      "inputs": [[807, 0, 0], [813, 0, 0], [814, 0, 0]]
    }, 
    {
      "op": "Activation", 
      "name": "multi_feat_4_conv_1x1_relu", 
      "attrs": {"act_type": "relu"}, 
      "inputs": [[815, 0, 0]]
    }, 
    {
      "op": "null", 
      "name": "multi_feat_4_conv_3x3_conv_weight", 
      "attrs": {
        "kernel": "(3, 3)", 
        "num_filter": "256", 
        "pad": "(1, 1)", 
        "stride": "(2, 2)"
      }, 
      "inputs": []
    }, 
    {
      "op": "null", 
      "name": "multi_feat_4_conv_3x3_conv_bias", 
      "attrs": {
        "__init__": "[\"constant\", {\"value\": 0.0}]", 
        "__lr_mult__": "2.0"
      }, 
      "inputs": []
    }, 
    {
      "op": "Convolution", 
      "name": "multi_feat_4_conv_3x3_conv", 
      "attrs": {
        "kernel": "(3, 3)", 
        "num_filter": "256", 
        "pad": "(1, 1)", 
        "stride": "(2, 2)"
      }, 
      "inputs": [[816, 0, 0], [817, 0, 0], [818, 0, 0]]
    }, 
    {
      "op": "Activation", 
      "name": "multi_feat_4_conv_3x3_relu", 
      "attrs": {"act_type": "relu"}, 
      "inputs": [[819, 0, 0]]
    }, 
    {
      "op": "null", 
      "name": "multi_feat_4_conv_3x3_relu_cls_pred_conv_weight", 
      "attrs": {
        "kernel": "(3, 3)", 
        "num_filter": "84", 
        "pad": "(1, 1)", 
        "stride": "(1, 1)"
      }, 
      "inputs": []
    }, 
    {
      "op": "null", 
      "name": "multi_feat_4_conv_3x3_relu_cls_pred_conv_bias", 
      "attrs": {
        "__init__": "[\"constant\", {\"value\": 0.0}]", 
        "__lr_mult__": "2.0"
      }, 
      "inputs": []
    }, 
    {
      "op": "Convolution", 
      "name": "multi_feat_4_conv_3x3_relu_cls_pred_conv", 
      "attrs": {
        "kernel": "(3, 3)", 
        "num_filter": "84", 
        "pad": "(1, 1)", 
        "stride": "(1, 1)"
      }, 
      "inputs": [[820, 0, 0], [821, 0, 0], [822, 0, 0]]
    }, 
    {
      "op": "transpose", 
      "name": "transpose9", 
      "attrs": {"axes": "(0, 2, 3, 1)"}, 
      "inputs": [[823, 0, 0]]
    }, 
    {
      "op": "Flatten", 
      "name": "flatten13", 
      "inputs": [[824, 0, 0]]
    }, 
    {
      "op": "null", 
      "name": "multi_feat_5_conv_1x1_conv_weight", 
      "attrs": {
        "kernel": "(1, 1)", 
        "num_filter": "128", 
        "pad": "(0, 0)", 
        "stride": "(1, 1)"
      }, 
      "inputs": []
    }, 
    {
      "op": "null", 
      "name": "multi_feat_5_conv_1x1_conv_bias", 
      "attrs": {
        "__init__": "[\"constant\", {\"value\": 0.0}]", 
        "__lr_mult__": "2.0"
      }, 
      "inputs": []
    }, 
    {
      "op": "Convolution", 
      "name": "multi_feat_5_conv_1x1_conv", 
      "attrs": {
        "kernel": "(1, 1)", 
        "num_filter": "128", 
        "pad": "(0, 0)", 
        "stride": "(1, 1)"
      }, 
      "inputs": [[820, 0, 0], [826, 0, 0], [827, 0, 0]]
    }, 
    {
      "op": "Activation", 
      "name": "multi_feat_5_conv_1x1_relu", 
      "attrs": {"act_type": "relu"}, 
      "inputs": [[828, 0, 0]]
    }, 
    {
      "op": "null", 
      "name": "multi_feat_5_conv_3x3_conv_weight", 
      "attrs": {
        "kernel": "(3, 3)", 
        "num_filter": "128", 
        "pad": "(1, 1)", 
        "stride": "(2, 2)"
      }, 
      "inputs": []
    }, 
    {
      "op": "null", 
      "name": "multi_feat_5_conv_3x3_conv_bias", 
      "attrs": {
        "__init__": "[\"constant\", {\"value\": 0.0}]", 
        "__lr_mult__": "2.0"
      }, 
      "inputs": []
    }, 
    {
      "op": "Convolution", 
      "name": "multi_feat_5_conv_3x3_conv", 
      "attrs": {
        "kernel": "(3, 3)", 
        "num_filter": "128", 
        "pad": "(1, 1)", 
        "stride": "(2, 2)"
      }, 
      "inputs": [[829, 0, 0], [830, 0, 0], [831, 0, 0]]
    }, 
    {
      "op": "Activation", 
      "name": "multi_feat_5_conv_3x3_relu", 
      "attrs": {"act_type": "relu"}, 
      "inputs": [[832, 0, 0]]
    }, 
    {
      "op": "null", 
      "name": "multi_feat_5_conv_3x3_relu_cls_pred_conv_weight", 
      "attrs": {
        "kernel": "(3, 3)", 
        "num_filter": "84", 
        "pad": "(1, 1)", 
        "stride": "(1, 1)"
      }, 
      "inputs": []
    }, 
    {
      "op": "null", 
      "name": "multi_feat_5_conv_3x3_relu_cls_pred_conv_bias", 
      "attrs": {
        "__init__": "[\"constant\", {\"value\": 0.0}]", 
        "__lr_mult__": "2.0"
      }, 
      "inputs": []
    }, 
    {
      "op": "Convolution", 
      "name": "multi_feat_5_conv_3x3_relu_cls_pred_conv", 
      "attrs": {
        "kernel": "(3, 3)", 
        "num_filter": "84", 
        "pad": "(1, 1)", 
        "stride": "(1, 1)"
      }, 
      "inputs": [[833, 0, 0], [834, 0, 0], [835, 0, 0]]
    }, 
    {
      "op": "transpose", 
      "name": "transpose11", 
      "attrs": {"axes": "(0, 2, 3, 1)"}, 
      "inputs": [[836, 0, 0]]
    }, 
    {
      "op": "Flatten", 
      "name": "flatten16", 
      "inputs": [[837, 0, 0]]
    }, 
    {
      "op": "Concat", 
      "name": "concat0", 
      "attrs": {
        "dim": "1", 
        "num_args": "6"
      }, 
      "inputs": [[583, 0, 0], [786, 0, 0], [799, 0, 0], [812, 0, 0], [825, 0, 0], [838, 0, 0]]
    }, 
    {
      "op": "Reshape", 
      "name": "reshape0", 
      "attrs": {"shape": "(0, -1, 21)"}, 
      "inputs": [[839, 0, 0]]
    }, 
    {
      "op": "transpose", 
      "name": "multibox_cls_pred", 
      "attrs": {"axes": "(0, 2, 1)"}, 
      "inputs": [[840, 0, 0]]
    }, 
    {
      "op": "SoftmaxActivation", 
      "name": "cls_prob", 
      "attrs": {"mode": "channel"}, 
      "inputs": [[841, 0, 0]]
    }, 
    {
      "op": "null", 
      "name": "ch_concat_mixed_7_chconcat_loc_pred_conv_weight", 
      "attrs": {
        "kernel": "(3, 3)", 
        "num_filter": "16", 
        "pad": "(1, 1)", 
        "stride": "(1, 1)"
      }, 
      "inputs": []
    }, 
    {
      "op": "null", 
      "name": "ch_concat_mixed_7_chconcat_loc_pred_conv_bias", 
      "attrs": {
        "__init__": "[\"constant\", {\"value\": 0.0}]", 
        "__lr_mult__": "2.0"
      }, 
      "inputs": []
    }, 
    {
      "op": "Convolution", 
      "name": "ch_concat_mixed_7_chconcat_loc_pred_conv", 
      "attrs": {
        "kernel": "(3, 3)", 
        "num_filter": "16", 
        "pad": "(1, 1)", 
        "stride": "(1, 1)"
      }, 
      "inputs": [[578, 0, 0], [843, 0, 0], [844, 0, 0]]
    }, 
    {
      "op": "transpose", 
      "name": "transpose0", 
      "attrs": {"axes": "(0, 2, 3, 1)"}, 
      "inputs": [[845, 0, 0]]
    }, 
    {
      "op": "Flatten", 
      "name": "flatten0", 
      "inputs": [[846, 0, 0]]
    }, 
    {
      "op": "null", 
      "name": "ch_concat_mixed_10_chconcat_loc_pred_conv_weight", 
      "attrs": {
        "kernel": "(3, 3)", 
        "num_filter": "24", 
        "pad": "(1, 1)", 
        "stride": "(1, 1)"
      }, 
      "inputs": []
    }, 
    {
      "op": "null", 
      "name": "ch_concat_mixed_10_chconcat_loc_pred_conv_bias", 
      "attrs": {
        "__init__": "[\"constant\", {\"value\": 0.0}]", 
        "__lr_mult__": "2.0"
      }, 
      "inputs": []
    }, 
    {
      "op": "Convolution", 
      "name": "ch_concat_mixed_10_chconcat_loc_pred_conv", 
      "attrs": {
        "kernel": "(3, 3)", 
        "num_filter": "24", 
        "pad": "(1, 1)", 
        "stride": "(1, 1)"
      }, 
      "inputs": [[781, 0, 0], [848, 0, 0], [849, 0, 0]]
    }, 
    {
      "op": "transpose", 
      "name": "transpose2", 
      "attrs": {"axes": "(0, 2, 3, 1)"}, 
      "inputs": [[850, 0, 0]]
    }, 
    {
      "op": "Flatten", 
      "name": "flatten3", 
      "inputs": [[851, 0, 0]]
    }, 
    {
      "op": "null", 
      "name": "multi_feat_2_conv_3x3_relu_loc_pred_conv_weight", 
      "attrs": {
        "kernel": "(3, 3)", 
        "num_filter": "24", 
        "pad": "(1, 1)", 
        "stride": "(1, 1)"
      }, 
      "inputs": []
    }, 
    {
      "op": "null", 
      "name": "multi_feat_2_conv_3x3_relu_loc_pred_conv_bias", 
      "attrs": {
        "__init__": "[\"constant\", {\"value\": 0.0}]", 
        "__lr_mult__": "2.0"
      }, 
      "inputs": []
    }, 
    {
      "op": "Convolution", 
      "name": "multi_feat_2_conv_3x3_relu_loc_pred_conv", 
      "attrs": {
        "kernel": "(3, 3)", 
        "num_filter": "24", 
        "pad": "(1, 1)", 
        "stride": "(1, 1)"
      }, 
      "inputs": [[794, 0, 0], [853, 0, 0], [854, 0, 0]]
    }, 
    {
      "op": "transpose", 
      "name": "transpose4", 
      "attrs": {"axes": "(0, 2, 3, 1)"}, 
      "inputs": [[855, 0, 0]]
    }, 
    {
      "op": "Flatten", 
      "name": "flatten6", 
      "inputs": [[856, 0, 0]]
    }, 
    {
      "op": "null", 
      "name": "multi_feat_3_conv_3x3_relu_loc_pred_conv_weight", 
      "attrs": {
        "kernel": "(3, 3)", 
        "num_filter": "24", 
        "pad": "(1, 1)", 
        "stride": "(1, 1)"
      }, 
      "inputs": []
    }, 
    {
      "op": "null", 
      "name": "multi_feat_3_conv_3x3_relu_loc_pred_conv_bias", 
      "attrs": {
        "__init__": "[\"constant\", {\"value\": 0.0}]", 
        "__lr_mult__": "2.0"
      }, 
      "inputs": []
    }, 
    {
      "op": "Convolution", 
      "name": "multi_feat_3_conv_3x3_relu_loc_pred_conv", 
      "attrs": {
        "kernel": "(3, 3)", 
        "num_filter": "24", 
        "pad": "(1, 1)", 
        "stride": "(1, 1)"
      }, 
      "inputs": [[807, 0, 0], [858, 0, 0], [859, 0, 0]]
    }, 
    {
      "op": "transpose", 
      "name": "transpose6", 
      "attrs": {"axes": "(0, 2, 3, 1)"}, 
      "inputs": [[860, 0, 0]]
    }, 
    {
      "op": "Flatten", 
      "name": "flatten9", 
      "inputs": [[861, 0, 0]]
    }, 
    {
      "op": "null", 
      "name": "multi_feat_4_conv_3x3_relu_loc_pred_conv_weight", 
      "attrs": {
        "kernel": "(3, 3)", 
        "num_filter": "16", 
        "pad": "(1, 1)", 
        "stride": "(1, 1)"
      }, 
      "inputs": []
    }, 
    {
      "op": "null", 
      "name": "multi_feat_4_conv_3x3_relu_loc_pred_conv_bias", 
      "attrs": {
        "__init__": "[\"constant\", {\"value\": 0.0}]", 
        "__lr_mult__": "2.0"
      }, 
      "inputs": []
    }, 
    {
      "op": "Convolution", 
      "name": "multi_feat_4_conv_3x3_relu_loc_pred_conv", 
      "attrs": {
        "kernel": "(3, 3)", 
        "num_filter": "16", 
        "pad": "(1, 1)", 
        "stride": "(1, 1)"
      }, 
      "inputs": [[820, 0, 0], [863, 0, 0], [864, 0, 0]]
    }, 
    {
      "op": "transpose", 
      "name": "transpose8", 
      "attrs": {"axes": "(0, 2, 3, 1)"}, 
      "inputs": [[865, 0, 0]]
    }, 
    {
      "op": "Flatten", 
      "name": "flatten12", 
      "inputs": [[866, 0, 0]]
    }, 
    {
      "op": "null", 
      "name": "multi_feat_5_conv_3x3_relu_loc_pred_conv_weight", 
      "attrs": {
        "kernel": "(3, 3)", 
        "num_filter": "16", 
        "pad": "(1, 1)", 
        "stride": "(1, 1)"
      }, 
      "inputs": []
    }, 
    {
      "op": "null", 
      "name": "multi_feat_5_conv_3x3_relu_loc_pred_conv_bias", 
      "attrs": {
        "__init__": "[\"constant\", {\"value\": 0.0}]", 
        "__lr_mult__": "2.0"
      }, 
      "inputs": []
    }, 
    {
      "op": "Convolution", 
      "name": "multi_feat_5_conv_3x3_relu_loc_pred_conv", 
      "attrs": {
        "kernel": "(3, 3)", 
        "num_filter": "16", 
        "pad": "(1, 1)", 
        "stride": "(1, 1)"
      }, 
      "inputs": [[833, 0, 0], [868, 0, 0], [869, 0, 0]]
    }, 
    {
      "op": "transpose", 
      "name": "transpose10", 
      "attrs": {"axes": "(0, 2, 3, 1)"}, 
      "inputs": [[870, 0, 0]]
    }, 
    {
      "op": "Flatten", 
      "name": "flatten15", 
      "inputs": [[871, 0, 0]]
    }, 
    {
      "op": "Concat", 
      "name": "multibox_loc_pred", 
      "attrs": {
        "dim": "1", 
        "num_args": "6"
      }, 
      "inputs": [[847, 0, 0], [852, 0, 0], [857, 0, 0], [862, 0, 0], [867, 0, 0], [872, 0, 0]]
    }, 
    {
      "op": "_contrib_MultiBoxPrior", 
      "name": "ch_concat_mixed_7_chconcat_anchors", 
      "attrs": {
        "clip": "False", 
        "ratios": "(1,2,0.5)", 
        "sizes": "(0.1,0.14142136)", 
        "steps": "(-1.0, -1.0)"
      }, 
      "inputs": [[578, 0, 0]]
    }, 
    {
      "op": "Flatten", 
      "name": "flatten2", 
      "inputs": [[874, 0, 0]]
    }, 
    {
      "op": "_contrib_MultiBoxPrior", 
      "name": "ch_concat_mixed_10_chconcat_anchors", 
      "attrs": {
        "clip": "False", 
        "ratios": "(1,2,0.5,3,0.333333333333)", 
        "sizes": "(0.2,0.2720294)", 
        "steps": "(-1.0, -1.0)"
      }, 
      "inputs": [[781, 0, 0]]
    }, 
    {
      "op": "Flatten", 
      "name": "flatten5", 
      "inputs": [[876, 0, 0]]
    }, 
    {
      "op": "_contrib_MultiBoxPrior", 
      "name": "multi_feat_2_conv_3x3_relu_anchors", 
      "attrs": {
        "clip": "False", 
        "ratios": "(1,2,0.5,3,0.333333333333)", 
        "sizes": "(0.37,0.44698992)", 
        "steps": "(-1.0, -1.0)"
      }, 
      "inputs": [[794, 0, 0]]
    }, 
    {
      "op": "Flatten", 
      "name": "flatten8", 
      "inputs": [[878, 0, 0]]
    }, 
    {
      "op": "_contrib_MultiBoxPrior", 
      "name": "multi_feat_3_conv_3x3_relu_anchors", 
      "attrs": {
        "clip": "False", 
        "ratios": "(1,2,0.5,3,0.333333333333)", 
        "sizes": "(0.54,0.619193)", 
        "steps": "(-1.0, -1.0)"
      }, 
      "inputs": [[807, 0, 0]]
    }, 
    {
      "op": "Flatten", 
      "name": "flatten11", 
      "inputs": [[880, 0, 0]]
    }, 
    {
      "op": "_contrib_MultiBoxPrior", 
      "name": "multi_feat_4_conv_3x3_relu_anchors", 
      "attrs": {
        "clip": "False", 
        "ratios": "(1,2,0.5)", 
        "sizes": "(0.71,0.79044294)", 
        "steps": "(-1.0, -1.0)"
      }, 
      "inputs": [[820, 0, 0]]
    }, 
    {
      "op": "Flatten", 
      "name": "flatten14", 
      "inputs": [[882, 0, 0]]
    }, 
    {
      "op": "_contrib_MultiBoxPrior", 
      "name": "multi_feat_5_conv_3x3_relu_anchors", 
      "attrs": {
        "clip": "False", 
        "ratios": "(1,2,0.5)", 
        "sizes": "(0.88,0.9612492)", 
        "steps": "(-1.0, -1.0)"
      }, 
      "inputs": [[833, 0, 0]]
    }, 
    {
      "op": "Flatten", 
      "name": "flatten17", 
      "inputs": [[884, 0, 0]]
    }, 
    {
      "op": "Concat", 
      "name": "concat1", 
      "attrs": {
        "dim": "1", 
        "num_args": "6"
      }, 
      "inputs": [[875, 0, 0], [877, 0, 0], [879, 0, 0], [881, 0, 0], [883, 0, 0], [885, 0, 0]]
    }, 
    {
      "op": "Reshape", 
      "name": "multibox_anchors", 
      "attrs": {"shape": "(0, -1, 4)"}, 
      "inputs": [[886, 0, 0]]
    }, 
    {
      "op": "_contrib_MultiBoxDetection", 
      "name": "detection", 
      "attrs": {
        "force_suppress": "True", 
        "nms_threshold": "0.5", 
        "nms_topk": "400", 
        "variances": "(0.1, 0.1, 0.2, 0.2)"
      }, 
      "inputs": [[842, 0, 0], [873, 0, 0], [887, 0, 0]]
    }
  ], 
  "arg_nodes": [
    0, 
    1, 
    3, 
    4, 
    5, 
    6, 
    9, 
    11, 
    12, 
    13, 
    14, 
    17, 
    19, 
    20, 
    21, 
    22, 
    26, 
    28, 
    29, 
    30, 
    31, 
    34, 
    36, 
    37, 
    38, 
    39, 
    43, 
    45, 
    46, 
    47, 
    48, 
    51, 
    53, 
    54, 
    55, 
    56, 
    59, 
    61, 
    62, 
    63, 
    64, 
    67, 
    69, 
    70, 
    71, 
    72, 
    75, 
    77, 
    78, 
    79, 
    80, 
    83, 
    85, 
    86, 
    87, 
    88, 
    92, 
    94, 
    95, 
    96, 
    97, 
    101, 
    103, 
    104, 
    105, 
    106, 
    109, 
    111, 
    112, 
    113, 
    114, 
    117, 
    119, 
    120, 
    121, 
    122, 
    125, 
    127, 
    128, 
    129, 
    130, 
    133, 
    135, 
    136, 
    137, 
    138, 
    141, 
    143, 
    144, 
    145, 
    146, 
    150, 
    152, 
    153, 
    154, 
    155, 
    159, 
    161, 
    162, 
    163, 
    164, 
    167, 
    169, 
    170, 
    171, 
    172, 
    175, 
    177, 
    178, 
    179, 
    180, 
    183, 
    185, 
    186, 
    187, 
    188, 
    191, 
    193, 
    194, 
    195, 
    196, 
    199, 
    201, 
    202, 
    203, 
    204, 
    208, 
    210, 
    211, 
    212, 
    213, 
    217, 
    219, 
    220, 
    221, 
    222, 
    225, 
    227, 
    228, 
    229, 
    230, 
    233, 
    235, 
    236, 
    237, 
    238, 
    241, 
    243, 
    244, 
    245, 
    246, 
    251, 
    253, 
    254, 
    255, 
    256, 
    259, 
    261, 
    262, 
    263, 
    264, 
    267, 
    269, 
    270, 
    271, 
    272, 
    275, 
    277, 
    278, 
    279, 
    280, 
    283, 
    285, 
    286, 
    287, 
    288, 
    291, 
    293, 
    294, 
    295, 
    296, 
    299, 
    301, 
    302, 
    303, 
    304, 
    307, 
    309, 
    310, 
    311, 
    312, 
    315, 
    317, 
    318, 
    319, 
    320, 
    324, 
    326, 
    327, 
    328, 
    329, 
    333, 
    335, 
    336, 
    337, 
    338, 
    341, 
    343, 
    344, 
    345, 
    346, 
    349, 
    351, 
    352, 
    353, 
    354, 
    357, 
    359, 
    360, 
    361, 
    362, 
    365, 
    367, 
    368, 
    369, 
    370, 
    373, 
    375, 
    376, 
    377, 
    378, 
    381, 
    383, 
    384, 
    385, 
    386, 
    389, 
    391, 
    392, 
    393, 
    394, 
    397, 
    399, 
    400, 
    401, 
    402, 
    406, 
    408, 
    409, 
    410, 
    411, 
    415, 
    417, 
    418, 
    419, 
    420, 
    423, 
    425, 
    426, 
    427, 
    428, 
    431, 
    433, 
    434, 
    435, 
    436, 
    439, 
    441, 
    442, 
    443, 
    444, 
    447, 
    449, 
    450, 
    451, 
    452, 
    455, 
    457, 
    458, 
    459, 
    460, 
    463, 
    465, 
    466, 
    467, 
    468, 
    471, 
    473, 
    474, 
    475, 
    476, 
    479, 
    481, 
    482, 
    483, 
    484, 
    488, 
    490, 
    491, 
    492, 
    493, 
    497, 
    499, 
    500, 
    501, 
    502, 
    505, 
    507, 
    508, 
    509, 
    510, 
    513, 
    515, 
    516, 
    517, 
    518, 
    521, 
    523, 
    524, 
    525, 
    526, 
    529, 
    531, 
    532, 
    533, 
    534, 
    537, 
    539, 
    540, 
    541, 
    542, 
    545, 
    547, 
    548, 
    549, 
    550, 
    553, 
    555, 
    556, 
    557, 
    558, 
    561, 
    563, 
    564, 
    565, 
    566, 
    570, 
    572, 
    573, 
    574, 
    575, 
    579, 
    580, 
    584, 
    586, 
    587, 
    588, 
    589, 
    592, 
    594, 
    595, 
    596, 
    597, 
    600, 
    602, 
    603, 
    604, 
    605, 
    608, 
    610, 
    611, 
    612, 
    613, 
    616, 
    618, 
    619, 
    620, 
    621, 
    624, 
    626, 
    627, 
    628, 
    629, 
    634, 
    636, 
    637, 
    638, 
    639, 
    642, 
    644, 
    645, 
    646, 
    647, 
    650, 
    652, 
    653, 
    654, 
    655, 
    658, 
    660, 
    661, 
    662, 
    663, 
    666, 
    668, 
    669, 
    670, 
    671, 
    674, 
    676, 
    677, 
    678, 
    679, 
    682, 
    684, 
    685, 
    686, 
    687, 
    690, 
    692, 
    693, 
    694, 
    695, 
    699, 
    701, 
    702, 
    703, 
    704, 
    708, 
    710, 
    711, 
    712, 
    713, 
    716, 
    718, 
    719, 
    720, 
    721, 
    724, 
    726, 
    727, 
    728, 
    729, 
    732, 
    734, 
    735, 
    736, 
    737, 
    740, 
    742, 
    743, 
    744, 
    745, 
    748, 
    750, 
    751, 
    752, 
    753, 
    756, 
    758, 
    759, 
    760, 
    761, 
    764, 
    766, 
    767, 
    768, 
    769, 
    773, 
    775, 
    776, 
    777, 
    778, 
    782, 
    783, 
    787, 
    788, 
    791, 
    792, 
    795, 
    796, 
    800, 
    801, 
    804, 
    805, 
    808, 
    809, 
    813, 
    814, 
    817, 
    818, 
    821, 
    822, 
    826, 
    827, 
    830, 
    831, 
    834, 
    835, 
    843, 
    844, 
    848, 
    849, 
    853, 
    854, 
    858, 
    859, 
    863, 
    864, 
    868, 
    869
  ], 
  "node_row_ptr": [
    0, 
    1, 
    2, 
    3, 
    4, 
    5, 
    6, 
    7, 
    10, 
    11, 
    12, 
    13, 
    14, 
    15, 
    16, 
    17, 
    20, 
    21, 
    22, 
    23, 
    24, 
    25, 
    26, 
    27, 
    30, 
    31, 
    32, 
    33, 
    34, 
    35, 
    36, 
    37, 
    38, 
    41, 
    42, 
    43, 
    44, 
    45, 
    46, 
    47, 
    48, 
    51, 
    52, 
    53, 
    54, 
    55, 
    56, 
    57, 
    58, 
    59, 
    62, 
    63, 
    64, 
    65, 
    66, 
    67, 
    68, 
    69, 
    72, 
    73, 
    74, 
    75, 
    76, 
    77, 
    78, 
    79, 
    82, 
    83, 
    84, 
    85, 
    86, 
    87, 
    88, 
    89, 
    92, 
    93, 
    94, 
    95, 
    96, 
    97, 
    98, 
    99, 
    102, 
    103, 
    104, 
    105, 
    106, 
    107, 
    108, 
    109, 
    112, 
    113, 
    114, 
    115, 
    116, 
    117, 
    118, 
    119, 
    120, 
    123, 
    124, 
    125, 
    126, 
    127, 
    128, 
    129, 
    130, 
    131, 
    134, 
    135, 
    136, 
    137, 
    138, 
    139, 
    140, 
    141, 
    144, 
    145, 
    146, 
    147, 
    148, 
    149, 
    150, 
    151, 
    154, 
    155, 
    156, 
    157, 
    158, 
    159, 
    160, 
    161, 
    164, 
    165, 
    166, 
    167, 
    168, 
    169, 
    170, 
    171, 
    174, 
    175, 
    176, 
    177, 
    178, 
    179, 
    180, 
    181, 
    184, 
    185, 
    186, 
    187, 
    188, 
    189, 
    190, 
    191, 
    192, 
    195, 
    196, 
    197, 
    198, 
    199, 
    200, 
    201, 
    202, 
    203, 
    206, 
    207, 
    208, 
    209, 
    210, 
    211, 
    212, 
    213, 
    216, 
    217, 
    218, 
    219, 
    220, 
    221, 
    222, 
    223, 
    226, 
    227, 
    228, 
    229, 
    230, 
    231, 
    232, 
    233, 
    236, 
    237, 
    238, 
    239, 
    240, 
    241, 
    242, 
    243, 
    246, 
    247, 
    248, 
    249, 
    250, 
    251, 
    252, 
    253, 
    256, 
    257, 
    258, 
    259, 
    260, 
    261, 
    262, 
    263, 
    264, 
    267, 
    268, 
    269, 
    270, 
    271, 
    272, 
    273, 
    274, 
    275, 
    278, 
    279, 
    280, 
    281, 
    282, 
    283, 
    284, 
    285, 
    288, 
    289, 
    290, 
    291, 
    292, 
    293, 
    294, 
    295, 
    298, 
    299, 
    300, 
    301, 
    302, 
    303, 
    304, 
    305, 
    308, 
    309, 
    310, 
    311, 
    312, 
    313, 
    314, 
    315, 
    316, 
    317, 
    320, 
    321, 
    322, 
    323, 
    324, 
    325, 
    326, 
    327, 
    330, 
    331, 
    332, 
    333, 
    334, 
    335, 
    336, 
    337, 
    340, 
    341, 
    342, 
    343, 
    344, 
    345, 
    346, 
    347, 
    350, 
    351, 
    352, 
    353, 
    354, 
    355, 
    356, 
    357, 
    360, 
    361, 
    362, 
    363, 
    364, 
    365, 
    366, 
    367, 
    370, 
    371, 
    372, 
    373, 
    374, 
    375, 
    376, 
    377, 
    380, 
    381, 
    382, 
    383, 
    384, 
    385, 
    386, 
    387, 
    390, 
    391, 
    392, 
    393, 
    394, 
    395, 
    396, 
    397, 
    400, 
    401, 
    402, 
    403, 
    404, 
    405, 
    406, 
    407, 
    408, 
    411, 
    412, 
    413, 
    414, 
    415, 
    416, 
    417, 
    418, 
    419, 
    422, 
    423, 
    424, 
    425, 
    426, 
    427, 
    428, 
    429, 
    432, 
    433, 
    434, 
    435, 
    436, 
    437, 
    438, 
    439, 
    442, 
    443, 
    444, 
    445, 
    446, 
    447, 
    448, 
    449, 
    452, 
    453, 
    454, 
    455, 
    456, 
    457, 
    458, 
    459, 
    462, 
    463, 
    464, 
    465, 
    466, 
    467, 
    468, 
    469, 
    472, 
    473, 
    474, 
    475, 
    476, 
    477, 
    478, 
    479, 
    482, 
    483, 
    484, 
    485, 
    486, 
    487, 
    488, 
    489, 
    492, 
    493, 
    494, 
    495, 
    496, 
    497, 
    498, 
    499, 
    502, 
    503, 
    504, 
    505, 
    506, 
    507, 
    508, 
    509, 
    510, 
    513, 
    514, 
    515, 
    516, 
    517, 
    518, 
    519, 
    520, 
    521, 
    524, 
    525, 
    526, 
    527, 
    528, 
    529, 
    530, 
    531, 
    534, 
    535, 
    536, 
    537, 
    538, 
    539, 
    540, 
    541, 
    544, 
    545, 
    546, 
    547, 
    548, 
    549, 
    550, 
    551, 
    554, 
    555, 
    556, 
    557, 
    558, 
    559, 
    560, 
    561, 
    564, 
    565, 
    566, 
    567, 
    568, 
    569, 
    570, 
    571, 
    574, 
    575, 
    576, 
    577, 
    578, 
    579, 
    580, 
    581, 
    584, 
    585, 
    586, 
    587, 
    588, 
    589, 
    590, 
    591, 
    594, 
    595, 
    596, 
    597, 
    598, 
    599, 
    600, 
    601, 
    604, 
    605, 
    606, 
    607, 
    608, 
    609, 
    610, 
    611, 
    612, 
    615, 
    616, 
    617, 
    618, 
    619, 
    620, 
    621, 
    622, 
    623, 
    626, 
    627, 
    628, 
    629, 
    630, 
    631, 
    632, 
    633, 
    636, 
    637, 
    638, 
    639, 
    640, 
    641, 
    642, 
    643, 
    646, 
    647, 
    648, 
    649, 
    650, 
    651, 
    652, 
    653, 
    656, 
    657, 
    658, 
    659, 
    660, 
    661, 
    662, 
    663, 
    666, 
    667, 
    668, 
    669, 
    670, 
    671, 
    672, 
    673, 
    676, 
    677, 
    678, 
    679, 
    680, 
    681, 
    682, 
    683, 
    686, 
    687, 
    688, 
    689, 
    690, 
    691, 
    692, 
    693, 
    696, 
    697, 
    698, 
    699, 
    700, 
    701, 
    702, 
    703, 
    706, 
    707, 
    708, 
    709, 
    710, 
    711, 
    712, 
    713, 
    714, 
    717, 
    718, 
    719, 
    720, 
    721, 
    722, 
    723, 
    724, 
    725, 
    726, 
    727, 
    728, 
    729, 
    730, 
    733, 
    734, 
    735, 
    736, 
    737, 
    738, 
    739, 
    740, 
    743, 
    744, 
    745, 
    746, 
    747, 
    748, 
    749, 
    750, 
    753, 
    754, 
    755, 
    756, 
    757, 
    758, 
    759, 
    760, 
    763, 
    764, 
    765, 
    766, 
    767, 
    768, 
    769, 
    770, 
    773, 
    774, 
    775, 
    776, 
    777, 
    778, 
    779, 
    780, 
    783, 
    784, 
    785, 
    786, 
    787, 
    788, 
    789, 
    790, 
    791, 
    792, 
    795, 
    796, 
    797, 
    798, 
    799, 
    800, 
    801, 
    802, 
    805, 
    806, 
    807, 
    808, 
    809, 
    810, 
    811, 
    812, 
    815, 
    816, 
    817, 
    818, 
    819, 
    820, 
    821, 
    822, 
    825, 
    826, 
    827, 
    828, 
    829, 
    830, 
    831, 
    832, 
    835, 
    836, 
    837, 
    838, 
    839, 
    840, 
    841, 
    842, 
    845, 
    846, 
    847, 
    848, 
    849, 
    850, 
    851, 
    852, 
    855, 
    856, 
    857, 
    858, 
    859, 
    860, 
    861, 
    862, 
    865, 
    866, 
    867, 
    868, 
    869, 
    870, 
    871, 
    872, 
    873, 
    876, 
    877, 
    878, 
    879, 
    880, 
    881, 
    882, 
    883, 
    884, 
    887, 
    888, 
    889, 
    890, 
    891, 
    892, 
    893, 
    894, 
    897, 
    898, 
    899, 
    900, 
    901, 
    902, 
    903, 
    904, 
    907, 
    908, 
    909, 
    910, 
    911, 
    912, 
    913, 
    914, 
    917, 
    918, 
    919, 
    920, 
    921, 
    922, 
    923, 
    924, 
    927, 
    928, 
    929, 
    930, 
    931, 
    932, 
    933, 
    934, 
    937, 
    938, 
    939, 
    940, 
    941, 
    942, 
    943, 
    944, 
    947, 
    948, 
    949, 
    950, 
    951, 
    952, 
    953, 
    954, 
    957, 
    958, 
    959, 
    960, 
    961, 
    962, 
    963, 
    964, 
    965, 
    968, 
    969, 
    970, 
    971, 
    972, 
    973, 
    974, 
    975, 
    976, 
    977, 
    978, 
    979, 
    980, 
    981, 
    982, 
    983, 
    984, 
    985, 
    986, 
    987, 
    988, 
    989, 
    990, 
    991, 
    992, 
    993, 
    994, 
    995, 
    996, 
    997, 
    998, 
    999, 
    1000, 
    1001, 
    1002, 
    1003, 
    1004, 
    1005, 
    1006, 
    1007, 
    1008, 
    1009, 
    1010, 
    1011, 
    1012, 
    1013, 
    1014, 
    1015, 
    1016, 
    1017, 
    1018, 
    1019, 
    1020, 
    1021, 
    1022, 
    1023, 
    1024, 
    1025, 
    1026, 
    1027, 
    1028, 
    1029, 
    1030, 
    1031, 
    1032, 
    1033, 
    1034, 
    1035, 
    1036, 
    1037, 
    1038, 
    1039, 
    1040, 
    1041, 
    1042, 
    1043, 
    1044, 
    1045, 
    1046, 
    1047, 
    1048, 
    1049, 
    1050, 
    1051, 
    1052, 
    1053, 
    1054, 
    1055, 
    1056, 
    1057, 
    1058, 
    1059, 
    1060, 
    1061, 
    1062, 
    1063, 
    1064, 
    1065, 
    1066, 
    1067, 
    1068, 
    1069, 
    1070, 
    1071, 
    1072, 
    1073, 
    1074, 
    1075, 
    1076, 
    1077
  ], 
  "heads": [[888, 0, 0]], 
  "attrs": {"mxnet_version": ["int", 10301]}
}